checkpoint4.pth (torch_old, 43809 bytes, 4 tensors)

fc1.weight f4 [256, 37]
00000000: de5e 7bbf 3171 31bd fc7e 69bd 195f 38bf
00000010: c867 0abf d77c 7bbf dfb9 d33d d087 5bbd
00000020: 0068 1ebf 50f0 dbbe b42b 9c3d 8c62 1abf
00000030: e04e 563d 85c3 93bf f06d 94bf 4c23 07bf
00000040: ccbb c23d de89 bebe 46f3 8a3d e5c2 4bbf
00000050: f3fa 65bd a382 f2be 75e9 f9bd 963c eebe
00000060: e3bc 4dbf 9727 01bf b3cd 20be 6363 06bf
00000070: 4bde e53c 4c57 8dbe 18f4 6cbf 5009 8abc
00000080: 6d01 e33d 4c28 433c fb05 85bf 661a 8abe
00000090: 1620 abbd 56ea 7cbd 29b8 ffbd b84f ad3d
000000a0: 0d3d d6be a9a8 e5be 915d 3ebe 6b6f 1ebf
000000b0: 682a a3be f059 983d d6aa afbe 3841 71bb
000000c0: f5a4 62be 2edd e3be 7445 a53d c1e2 1e3e
000000d0: ddb1 c23b 463d 0bbf b4fd 87be 8fa3 a0bd
000000e0: 3fd5 46bf b714 00bf 2864 7fbe 88fe 10be
000000f0: 6dfa b33d 7664 5fbe 2f12 e3bd 9313 13be
00000100: 1f67 f3be 4eeb 1b3d 5958 8abf e0f4 cebe
00000110: 99ea bb3e af0d bdbe 6666 85bd 4fa7 17be
00000120: 49da 063c 4a31 06bd ee01 973e be85 8dbe
00000130: 246b 23bf bb42 c0be 46ba ecbe 58d1 39bf
00000140: 107f a3be 54bb aebb eb6d 5d3c 525c 86bf
00000150: 18b3 9cbe 5e96 3dbf 13bb 3cbe cbf9 28be
00000160: 616f 8cbc 35d3 52be 1226 0cbd 082a c4be
00000170: 86e3 64be b434 e93d 8d1f 92bd a197 fcbe
00000180: eb3f 39bd 956b 31bf e253 bdbe 19fa 67be
00000190: f2b7 a5be a0ea b2be b9d4 1a3e ca67 8fbf
000001a0: 9bd3 36bf d291 93be 63eb 503d f2a3 73be
000001b0: c382 333e 9a9d 923e 966e 98bd 3243 543d
000001c0: 2fb9 503d fe71 68bc d66f 78bd 1c8a 1abf
000001d0: a4b1 3fbe ab18 82be 5f07 3a3d bb18 3ebe
000001e0: 52a6 f7be f2a2 2ebe 5dee 293c cfb2 3f3b
000001f0: a9bd a5be 65d2 babd 9ad0 a6be f39c 26be
00000200: 54c1 e4ba a1af 74be 9d57 10bf bdab 673d
00000210: 9b4b 03be d5bf 5abe 8c5a 16be a90f 0cbe
00000220: 1a70 22be 7a24 81be 0ac2 313d 137b f0bd
00000230: 58e8 bebd 9611 1abe 8a33 08bd 4c16 a03d
00000240: 42af 81be 02ff efbe 09ab 023d 1cdc 45bc
00000250: d3cb fd3c bc0e c5be 7dd5 c1bd b50a 713c
00000260: 2bf2 ddbe 786d cd3e 13e1 e6be 793c f9bf
00000270: 2acc 89bf cbd7 61c0 83e8 ccbd 6bae 1cbb
00000280: abe1 513d 4076 fabe 4f02 1abe 4d8d aabe
00000290: 7d1e 25be dbe0 933e c205 c4be ea16 1c3e
000002a0: 8de0 9abd 4171 643e 4323 20be 08e4 703e
000002b0: 67e9 ca3e 2c2e d5be 9b61 d63e 2bee 53bd
000002c0: f43f 363e 24bb a23d c562 61be bf10 b13e
000002d0: 40e5 403e f129 7b3c 7df5 d63e b9f7 293e
000002e0: 1902 85bd f069 a4be ed3d d93d 8e1d 1bbf
000002f0: 98e1 f43b 69fa 0bbe fd3c dabe b79d 7d3e
00000300: 1fb3 07bf 9fd3 413c 9485 39bd ced3 7bbe
00000310: 82a0 1b3e c7ae a43d c908 13bf ebb3 3cbf
00000320: 28eb d3be 5f15 04bd b236 08bf 725d d4be
00000330: 8026 51bf c18e c1be 341b 20bf 3be6 9ebb
00000340: 7e5e 17bf f549 92bf 7fb3 8bbd cd37 74be
00000350: 5d64 e5bd f05b abbe 9175 45bf 9ef9 d2be
00000360: 36d1 1dbf b371 083f 57fc ddbe fb6e 96bf
00000370: 0f09 17bf d7c4 55be 3a09 a03e d97d 2ebf
00000380: d293 febe 423d eabe 2514 f9bf 2722 43be
00000390: 1e88 9cbe 53a8 4cbd 5f52 803e b405 acbd
000003a0: 5254 273e 4273 93be 9dc6 bc3d 58b7 bf3a
000003b0: ec62 04bf 0016 bfbd c3d4 02be 878f 6abe
000003c0: 0171 55be 5b11 d5bd db9b 50be d0a7 023d
000003d0: d805 b2bd a8f9 1fbf c992 34be f937 6abc
000003e0: d06a 11be 9340 8dbe 75d2 a3bd 03f6 bbbe
000003f0: 5191 41be 6c88 103e 4d3b 17bf 7c9a 14be
-0.9819163 -0.04332084 -0.057005867 -0.7202011 -0.5406461 -0.98237365 0.103381865 -0.053596318
-0.6187744 -0.4295678 0.07625523 -0.6030662 0.052321315 -1.1544043 -1.159605 -0.52788234
0.09508476 -0.3721456 0.06784682 -0.7959426 -0.056147527 -0.47365293 -0.122027315 -0.46530598
-0.80366343 -0.50451034 -0.15703468 -0.524954 0.0280601 -0.27605665 -0.9255996 -0.016850144
0.11084256 0.011911463 -1.039245 -0.26973265 -0.08355729 -0.061746918 -0.12486298 0.08462471
-0.41843453 -0.4485524 -0.1859038 -0.6188876 -0.3186829 0.07439029 -0.34310025 -0.0036812555
-0.22133239 -0.44504684 0.08069888 0.15516187 0.005941613 -0.5439037 -0.26560748 -0.07843696
-0.7766914 -0.5003161 -0.2494055 -0.14159596 0.08787999 -0.21815667 -0.110874526 -0.14362936
-0.47539613 0.0380662 -1.0808212 -0.404212 0.3670242 -0.36924502 -0.065136716 -0.14809917
0.008230754 -0.03276185 0.2949366 -0.276411 -0.6383536 -0.3755091 -0.46235865 -0.7258506
-0.31932878 -0.00533239 0.013514976 -1.0496924 -0.30605388 -0.7405757 -0.18430738 -0.16501538
-0.017142953 -0.20588382 -0.034215994 -0.38313317 -0.22352418 0.113870054 -0.07134924 -0.49334434
-0.045226973 -0.6930478 -0.3697806 -0.22653998 -0.32366902 -0.3494463 0.1512021 -1.1203549
-0.71416634 -0.2882219 0.051005732 -0.23793009 0.1753035 0.28635865 -0.074429676 0.051821895
0.050957855 -0.014187334 -0.06065353 -0.6036699 -0.18720108 -0.25409445 0.045417186 -0.18564121
-0.4836908 -0.17054346 0.010371772 0.0029250865 -0.32371262 -0.09122161 -0.32581025 -0.16270809
-0.0017452636 -0.23895122 -0.5638369 0.056560267 -0.1282181 -0.2136224 -0.14682978 -0.13677849
-0.15863076 -0.25223142 0.04339794 -0.117422245 -0.0932166 -0.15045771 -0.033252276 0.07816753
-0.25329024 -0.46874243 0.031901393 -0.012076404 0.03098098 -0.38487804 -0.09464548 0.014712025
-0.43348822 0.4012258 -0.45093593 -1.947158 -1.0765431 -3.528796 -0.100052856 -0.0023907672
0.051240604 -0.48918343 -0.15039943 -0.3331093 -0.16124912 0.2888249 -0.38285643 0.15243116
-0.07562361 0.22308828 -0.15638451 0.23524487 0.39631197 -0.4163679 0.41871342 -0.051740807
0.17797834 0.079458505 -0.22010334 0.3458309 0.18837452 0.015329824 0.41984168 0.16598405
-0.06494541 -0.32112074 0.106075145 -0.6059197 0.007473182 -0.13669743 -0.42624655 0.24767195
-0.5300769 0.01183024 -0.045293406 -0.24592516 0.15197948 0.08041149 -0.5743528 -0.73712033
-0.41390347 -0.032246944 -0.5320846 -0.41477543 -0.8169937 -0.37804225 -0.6254151 -0.004849223
-0.5912856 -1.142882 -0.068213455 -0.23849411 -0.112007834 -0.3346858 -0.7713252 -0.41206068
-0.61647356 0.5329849 -0.43356583 -1.1752619 -0.589982 -0.2087587 0.3125704 -0.6816078
-0.49722153 -0.4574986 -1.9459273 -0.19055997 -0.305726 -0.049965214 0.25062844 -0.08399525
0.1634076 -0.28798872 0.0921757 0.0014626784 -0.5171344 -0.09330368 -0.12776475 -0.22906314
-0.20843889 -0.10403701 -0.20371954 0.03189832 -0.08692521 -0.6249032 -0.17634119 -0.0142955715
-0.14200902 -0.2758833 -0.07999126 -0.3671113 -0.1890309 0.14114541 -0.5907486 -0.14512056

fc1.bias f4 [256]
00000000: 2a72 fbbe 809b 8bbe 31c5 eabe 3f24 97be
00000010: 761a 32be 0b20 c7be b0bf bebe cbe3 c1be
00000020: e8f0 aebe 909e 2cbf b9be 96be 4a37 cfbd
00000030: d6fd eabe 9cc5 6ebe 1a87 d2be c2d7 96be
00000040: 3912 6ebe 099f 51be 7b9c cfbe 4b03 0abf
00000050: 3775 d2be 5dd5 79be 5551 c6be a79e 25bf
00000060: 774e 30bf 2108 61be 828e 383d 7427 cdbd
00000070: 2339 bdbe 6e3a f3be 6945 19be 6acc ebbe
00000080: 86a3 9bbe a4d9 2abe c890 e7be f08e 45be
00000090: 729f cfbe 12f2 aabd 761b c2be b4e7 183d
000000a0: 6316 d8be c4ab bcbe 8797 4bbe a7e4 fabe
000000b0: 1dfb cfbe 45d3 08bf 53ba 03bf 719d cbbe
000000c0: cf69 dbbe 768e cdbe d200 efbe e62b b7be
000000d0: 097d 60be 8e37 00be 2683 84be 5a7c 1ebf
000000e0: 60f7 64be 00bf 4fbe b2bc 2bbe c6d9 473e
000000f0: 085f ddbe be92 823e 97da 27be f336 80be
00000100: e629 5abe 2161 f2be c76d 10bf c75b 34bf
00000110: 1873 9dbe 0156 04bf 9fd6 2cbf 25a4 b5be
00000120: ab93 16bf fd38 80be 81d5 0cbe 10f0 b1be
00000130: 763f efbd 0542 85be 9a57 b8be 2926 aebe
00000140: a332 06bf 9114 073d e55d d2be 9866 95be
00000150: 232f 97be a340 72be 00cb bebe 64ad b93c
00000160: 0f05 8cbe 921b 8fbe 3272 bdbd 35ac 92be
00000170: 23a9 a9be df17 e8be f64e 88be 1646 bdbe
00000180: 8abe 8ebd d11e eabe fd6a d9be 38b0 83be
00000190: f198 f1be d9c2 e7be 3b86 08bf 229e a63e
000001a0: 37c3 c2be ddf2 22bf 818c d1be 1d49 f4be
000001b0: 08b3 d6be 12d4 38be 882e cebe 924d bbbe
000001c0: b03f 3ebe 61c6 86be aea9 aebe a6bb 09bf
000001d0: 3973 16bf 9b0c a5be 574d 4b3e 615d f2be
000001e0: cc69 9dbe 359b f6be df73 9bbe e7aa 12be
000001f0: bc71 fbbe 90ba 0dbf ca28 a1be c428 20be
00000200: 9eb7 533e 3e21 c8be ffdf 80be 2916 ccbe
00000210: b372 1dbe 6ece f4be a33e 8fbe 0239 23bf
00000220: bb55 d0be e895 36be d602 a9be d545 15bf
00000230: a89d c8be cc3f febd 9579 c5be 2216 c8be
00000240: cefb 82be 4048 b0be 3c46 17bf e29b 9fbc
00000250: 8215 c7be 4f52 72be d1a3 b1be 1bf0 cabe
00000260: 1d3f b7be 7ef8 b3be 67b3 93be 1889 dabe
00000270: 061e bdbe 6101 efbe 70ca bfbe 1282 27be
00000280: 7206 02bf a8d4 cf3d d608 7bbe e6db 01bf
00000290: 10a8 cebe ce9e ebbe 1221 83be 89ea 1cbf
000002a0: 23bd e9be 2bc0 cebe 1e5c 8ebe eefd 7bbe
000002b0: 3383 93be b727 47be 2efb 3dbe 17f0 9ebe
000002c0: d6ba 16be 3b0b 1abf dce1 b1be f3a6 3bbf
000002d0: f783 163f c188 86be ef85 ddbe c645 c7be
000002e0: 393c d2be 4d96 5cbe 15cc 8abe 1c1a aebe
000002f0: c82c c2be 8df7 78be 0c4d 29bf 51df 56be
00000300: e81e b8be 02b6 553f 5942 07bf 84f9 b9be
00000310: fd09 7cbe ee5e 1dbf 034e 96be d682 31be
00000320: 642e 42bd be10 b1be b2f2 bdbe d76d d1be
00000330: f328 c9be edb0 0bbf 8ba7 a5bd 4f23 80be
00000340: 48f7 54be 60e0 8cbe a19b fabe c5c9 44bf
00000350: 9422 dabe 52d9 cbbe 61b3 70be d088 04bf
00000360: 239a 98be de23 e5be 64a0 93be ecad 1cbf
00000370: 80a5 acbe 4554 d4be 320b abbe f073 89be
00000380: 29d9 14bf e818 7bbe f95d 45be 5a60 f3be
00000390: c133 98be 9494 cebe ba38 063d 0065 bfbe
000003a0: a6f4 6abe f546 05be b724 83be 938a 32bf
000003b0: 03a5 d2be ada8 cdbe 9823 7ebb dfb2 1cbf
000003c0: 0fe9 c2be 5004 0bbe e735 b4be 784c 93be
000003d0: 5d79 0ebf f440 eebe 3470 a3be 2147 95bd
000003e0: faa7 c7be 3e4d 9cbe 0c17 e0be 0c45 afbe
000003f0: 058b e9be 298d babd 674d e7be 993c afbe
-0.49110538 -0.27267075 -0.4585357 -0.2951984 -0.17392907 -0.38891634 -0.3725562 -0.37869105
-0.34168172 -0.6742945 -0.29442385 -0.101179674 -0.45896786 -0.2331757 -0.411187 -0.29461485
-0.23249139 -0.20470823 -0.40549073 -0.53911275 -0.41105053 -0.24397798 -0.38733926 -0.6469521
-0.6886973 -0.21975757 0.04505778 -0.10017291 -0.36957654 -0.47505516 -0.14967884 -0.46054393
-0.30398196 -0.16684586 -0.45227647 -0.19292808 -0.40551335 -0.083469525 -0.37911576 0.037330344
-0.4220458 -0.36849797 -0.19882022 -0.49002573 -0.40621272 -0.5344737 -0.51456183 -0.39768556
-0.42854163 -0.40147752 -0.46680313 -0.3577568 -0.21922697 -0.12521192 -0.25881308 -0.61908495
-0.22359991 -0.20287704 -0.167712 0.19516668 -0.43236566 0.2550258 -0.16391979 -0.25041923
-0.21305045 -0.47339728 -0.56417507 -0.7045254 -0.30751872 -0.5169373 -0.67514986 -0.35476795
-0.58819073 -0.2504348 -0.1375332 -0.34753466 -0.11682026 -0.2602693 -0.36004335 -0.3401349
-0.52421016 0.032978598 -0.4108726 -0.29179835 -0.2952815 -0.2365747 -0.37264252 0.022665687
-0.2734761 -0.27950722 -0.09250297 -0.2864701 -0.33136854 -0.45330712 -0.26622742 -0.36967534
-0.06969936 -0.45726636 -0.42464438 -0.25720382 -0.47186998 -0.45265844 -0.5332982 0.3254252
-0.38039562 -0.6365183 -0.40927508 -0.4771203 -0.41933465 -0.18049648 -0.40269876 -0.3658262
-0.18578982 -0.26323226 -0.3411383 -0.53801954 -0.58769566 -0.3223618 0.19853722 -0.47336867
-0.3074478 -0.4816529 -0.3036184 -0.14323007 -0.4911021 -0.55362797 -0.31476432 -0.15640551
0.20675513 -0.39087862 -0.25170895 -0.39860657 -0.15375786 -0.47813743 -0.27977476 -0.6375886
-0.40690407 -0.17830622 -0.33009976 -0.5830968 -0.39182782 -0.12414512 -0.38569322 -0.39079386
-0.25582737 -0.34430122 -0.59091544 -0.01948351 -0.38883597 -0.2366421 -0.34695294 -0.3963631
-0.3579034 -0.35150522 -0.2884781 -0.4268272 -0.3693697 -0.4668074 -0.37459135 -0.16358212
-0.50791085 0.10147983 -0.2451509 -0.50726163 -0.40362597 -0.46019596 -0.25611168 -0.6129537
-0.45652112 -0.40380988 -0.27804655 -0.24608585 -0.28811035 -0.19448744 -0.18552849 -0.3104255
-0.1471971 -0.60173386 -0.3474263 -0.7330162 0.5879511 -0.2627621 -0.43266246 -0.3892042
-0.4106157 -0.2154171 -0.27108827 -0.34004295 -0.3792479 -0.24313183 -0.6613319 -0.20983626
-0.3596108 0.83480847 -0.52835613 -0.36323178 -0.24613185 -0.61472976 -0.29356393 -0.17335066
-0.047407523 -0.34583086 -0.37099224 -0.40904114 -0.39289054 -0.5456684 -0.08088597 -0.25026938
-0.20797455 -0.27514935 -0.4894686 -0.76870376 -0.42604506 -0.3981424 -0.23505928 -0.5177126
-0.29805097 -0.44753927 -0.28833306 -0.61202884 -0.33720016 -0.41470543 -0.3340698 -0.26846266
-0.5814386 -0.2452122 -0.19274129 -0.47534448 -0.29726985 -0.4034773 0.032768942 -0.37381744
-0.22944888 -0.13015349 -0.2561395 -0.697427 -0.4114152 -0.40167752 -0.003877854 -0.61210436
-0.38068435 -0.13575864 -0.35197374 -0.2876928 -0.55653936 -0.4653393 -0.31921542 -0.072889574
-0.38995343 -0.3052768 -0.43767583 -0.34232366 -0.45613876 -0.091089554 -0.4517624 -0.3422592

fc2.weight f4 [4, 256]
00000000: d573 b03d 2eb9 28be 5930 893e f36a dfbd
00000010: a4a9 6d3d b6b7 4ebe d0b1 e0be 7f28 77be
00000020: 9ec5 b93c 4dbf 433e f7ef 19be 3d63 a53b
00000030: 42dd 983d d061 8e3d 849d 643e fc26 d4bc
00000040: c9fd a9be bdab b53d bd52 bdbd 4a99 323e
00000050: 730b 5abe a2bf ec3d e03a 94bc 63d8 223e
00000060: bbeb bc3e fc8b a1be 0708 4d3d 0bff 84bd
00000070: f3b4 fabe 83fb bf3d 577a 343b e7e1 31be
00000080: 3053 6ebd 0d48 b4bb 20a9 46bd 2511 183c
00000090: 6196 f33d 9327 f2be 7458 043e 5962 21be
000000a0: 65f3 e2bc 6735 323e 8cd4 58be 0dd8 98be
000000b0: 1152 7c3e 0203 753d e402 903e 85f2 64be
000000c0: 1a09 c63c 6d38 9d3d 70fc b0bd 3ea0 fbbd
000000d0: fa54 153e b39a 58bf c96f 68be 8754 8f3d
000000e0: 6ed6 9ebe 7ca2 7dbe 1f27 cdbe 3865 76bf
000000f0: 77d0 973d 9df0 5fbe eb9f f43d 8517 143f
00000100: 10f1 c3bd 2bf9 e3bc a545 6a3d d443 903d
00000110: 91c6 2fbd ec8a 063c 754b be3e 701c 4d3e
00000120: bc01 d43c 13c1 33be 3ca1 573d e205 dcbd
00000130: 4cbc 8abe fe2f 3b3e 7ad7 fabd ddef e93e
00000140: 36a2 bcbe 9e39 c93d 9672 13be f5ef 49be
00000150: 4f50 9a3e c714 5fbc fcdc 0bbe 9e24 3b3d
00000160: 3b1e c73e e45c db3d 680d 843e dada b73c
00000170: bfbb ed3c 6596 b73d 3536 3c3d 6bc0 6abe
00000180: d3b4 593c 8f00 e13d e95f 943e ede4 99bd
00000190: f690 983e cf4b 8e3c 411f febc 9fbb d8bd
000001a0: 1a4e 83be c67e 0fbd a158 aa3e 1d0c cebe
000001b0: 5226 5fbe e60a 133f 2315 123e b36a f7bb
000001c0: 1f40 ed3d 763b 8fbe b1ac b0be ce79 df3d
000001d0: 9a7f 853e 22ff 36be febd ca3e 7ea7 36be
000001e0: 5074 4b3e 852e 6abe 0102 3abc 20af 43bf
000001f0: 885b fb3e 8087 a53e dfc1 9e3e 0655 e2be
00000200: 2ee1 d33d 5f4f 4abe 260a 803c 59d4 d3bc
00000210: b263 093d 200c b63d 88e1 d5bc 7ad1 443e
00000220: f022 3b3c 68e1 a3be a152 433d 385e d0bc
00000230: a0c3 c3bd 038a 9bbe 4f38 a3be 38ae 033e
00000240: b3d0 41bf 278b ddbe 5b5c dd3d 553c fbbd
00000250: 002e 393e 93b0 913e 1983 d9be cbda f13e
00000260: ddab 1b3e 5846 723e f7d9 06bf 3077 d0be
00000270: e339 7ebe 35ff 01bf 5427 a4bd 6547 19be
00000280: 541b a93e 3ac2 29bf 2e19 d23d 6e67 a13a
00000290: 653e dd3c aa59 8fbc 986f 2d3e fe5a 063e
000002a0: ae8e ca3d 895f 583e 42e1 003d f070 823c
000002b0: 5886 a5be d9a8 af3e dc8c a1be bf57 903e
000002c0: fd19 36be ed72 01bd fb1b 743e bd98 5cbd
000002d0: 6a18 493e 9224 df3c fee8 4d3d 680b 63be
000002e0: bd77 a53e 62ab 76be 178d 923e 8148 b53d
000002f0: ef4a 053e e2cf 04be 224d b9bd e272 fabd
00000300: 72db 90be 6359 ae3e 7e37 98bd 55d4 853d
00000310: f916 893e c224 463d 9b2c d7be 1433 993c
00000320: ac5c f9be 0541 b13d 0098 8ebd 0da2 bcbe
00000330: 7287 653e 75d9 d03d d73f 6fbc 1f56 953d
00000340: 7521 a93e ab51 b4be dcc0 893e 7ca6 b43d
00000350: 3b63 8abe 0c1a 08bf 7ecc 373e 4e52 1ebe
00000360: 306f d73e 3f00 48be a3c4 b03e 9ef2 063e
00000370: 4b03 92bd db9c 563e 1f84 12bf 9a8d 99be
00000380: 2501 c63e 8861 86bd 9c3f 44bd 82cd f2be
00000390: ab2a 40be 0806 1e3e 68a3 323d 0ca3 80be
000003a0: 9a94 a1be 17bf 493e 232c b93c b87f 19be
000003b0: ab92 d3bb a693 7f3e 07e4 29bf 9c99 ba3e
000003c0: cdfd abbd 7fa0 1dbe 43ab f1bc 848f 8fbe
000003d0: b1d5 973e 7f6c f43d 6fc5 4a3e 380e c8be
000003e0: aef6 913d 5b1d 94be 9f65 8cbe 60e6 0cbe
000003f0: d061 c93e 3d31 efbd 3da2 cd3d 0ab1 053e
0.08615843 -0.1647689 0.267947 -0.10909071 0.05802311 -0.20187268 -0.4388566 -0.24136542
0.022677239 0.19115944 -0.15032946 0.0050472305 0.074640766 0.0695225 0.22325712 -0.025897495
-0.33201435 0.08870647 -0.09244297 0.17441288 -0.2129343 0.115599886 -0.01809448 0.15902857
0.36898598 -0.31552112 0.050056484 -0.06493958 -0.48966178 0.09374144 0.002753874 -0.17371331
-0.058184803 -0.005501753 -0.048501134 0.009281431 0.11893917 -0.47295818 0.12924367 -0.15760173
-0.02770395 0.17403184 -0.2117483 -0.29852334 0.24640681 0.05981732 0.28127205 -0.22358139
0.024174262 0.07676778 -0.08641899 -0.12286423 0.14583197 -0.8461105 -0.22698893 0.06998544
-0.31022972 -0.24769014 -0.4006891 -0.962482 0.074128084 -0.2186913 0.119445644 0.5784839
-0.095674634 -0.027828773 0.057195324 0.07044187 -0.042913977 0.0082118325 0.37166944 0.2003038
0.025879733 -0.1755412 0.052644 -0.107433096 -0.27096784 0.18280026 -0.1224813 0.45690814
-0.36842507 0.09825443 -0.1439918 -0.19720443 0.30139396 -0.013615794 -0.13658518 0.045689218
0.38890252 0.10711077 0.25791478 0.022443224 0.029020188 0.08964232 0.045950133 -0.22924964
0.013287741 0.10986435 0.28979424 -0.07514367 0.29798096 0.017370133 -0.031020762 -0.10582661
-0.25645524 -0.03503301 0.33270743 -0.40243617 -0.21791962 0.57438505 0.14265876 -0.0075505613
0.11584496 -0.27975053 -0.34506753 0.10911904 0.26073915 -0.17870763 0.39598078 -0.1783733
0.19868588 -0.22869308 -0.011353017 -0.76439095 0.4909327 0.3232994 0.31007287 -0.44205493
0.10345684 -0.1975684 0.01562984 -0.025858091 0.033542342 0.088890314 -0.026108518 0.19220534
0.011421904 -0.3200791 0.047686223 -0.025435552 -0.09558797 -0.30378732 -0.31878898 0.12859428
-0.75709075 -0.43270227 0.10808631 -0.12267367 0.18083954 0.28455028 -0.42482832 0.47237238
0.1520228 0.23659647 -0.5267634 -0.40715933 -0.2482677 -0.5078004 -0.08015314 -0.14968641
0.33028662 -0.6631199 0.10258709 0.001231415 0.027007291 -0.01749881 0.16937101 0.13120648
0.09890495 0.21130194 0.031464823 0.015922993 -0.3232906 0.34308508 -0.3155278 0.28191945
-0.17783351 -0.031603742 0.23838799 -0.0538566 0.1963822 0.027239118 0.050271027 -0.2217232
0.32317916 -0.24088815 0.28623268 0.0885172 0.13016866 -0.12969926 -0.09047915 -0.122289434
-0.28292423 0.34052572 -0.07432459 0.0653464 0.2677534 0.0483749 -0.4202622 0.018701114
-0.48703516 0.086549796 -0.069625854 -0.36842385 0.2241495 0.10197727 -0.014602623 0.07291817
0.33033338 -0.35218558 0.26904953 0.08820817 -0.27028832 -0.53164744 0.17949101 -0.15461084
0.42077017 -0.19531344 0.34525022 0.13178489 -0.07129534 0.20958273 -0.5723285 -0.29990846
0.38672748 -0.06561571 -0.047912225 -0.47422415 -0.18766277 0.15431988 0.043612868 -0.25124395
-0.31558686 0.19701801 0.022604054 -0.14990127 -0.006456693 0.24958667 -0.6636357 0.3644532
-0.08398018 -0.15393256 -0.02950061 -0.2803918 0.2965522 0.119347565 0.19801877 -0.39073348
0.071271285 -0.28928646 -0.2742128 -0.13759756 0.39332438 -0.11679313 0.1004071 0.13055816

fc2.bias f4 [4]
00000000: b985 7b3f 7c15 093f 098b 3e3f 2f9e 2d3f
0.9825092 0.5354841 0.744309 0.67819494
