checkpoint4.pth (torch_old, 43801 bytes, 4 tensors)

fc1.weight f4 [256, 37]
00000000: d6b3 d33b a7c7 b7be 669a 71be a4eb 4c3b
00000010: 8366 4cbf b97a edbd 9e6b 5fbe b2a7 933e
00000020: 8f63 1b3d 490e af3e bc96 2a3d 2c7f 0cbf
00000030: e1e3 9fbe f976 1abf 0112 f0be b67c f7bc
00000040: 4018 6fbe 6ce1 82bd d59f 34be c8cb 3abf
00000050: 9d4b 653e 9912 d8be 59cf 68bf 7761 20bf
00000060: 51e0 70bf b5aa 8fbd c464 82be c142 63be
00000070: 7dcd 50bc cd4a bcbe 7386 d23d 5531 d7be
00000080: cf3c adbe 45a1 053e df37 6ebe bd43 bbbe
00000090: e489 4abe 268c c03d 5ba5 c8be bdd8 03be
000000a0: 8b32 b0be 58fa 1fbf faaf efbe 8774 31bf
000000b0: f5cc dabe e1c8 9d3e 1c58 babe a173 903e
000000c0: e435 d3be aba6 91bd 5642 8bbe db42 05be
000000d0: 23c5 1fbe f78c 35bd 8038 343d 55c6 adbc
000000e0: b44b efbe 883f 0cbf 91c5 513d 3bf7 8fbe
000000f0: 46e1 aabb 2d89 ca3d 3769 91bc 06d6 05be
00000100: f8ec 84be 53bc acbe ec33 983d 4a49 8cbe
00000110: 5485 d63d bf22 02be 6e8b d8be 90fd 503e
00000120: 6834 783e d1dc f8bc c8f8 79be edb4 56be
00000130: 542d 943d fe9f 15be d622 da3d c8b8 4abd
00000140: e2bd e6be cb09 8abe 5473 453e 50de 16bf
00000150: ddee dcbe f8d9 b3be e52f 0bbf 1610 893d
00000160: 1f4a 3abf 713a b9be 5175 58be d8ce 113e
00000170: 6235 013e 7579 81be a67e ddbe a4db 99be
00000180: 542c 03bf 06f0 e33c 1764 74bf bffb 31be
00000190: 7e7b 8cbe d1de 35be 89df be3d 3453 87be
000001a0: c3cb 1fbf 05b5 0e3e d22e 46bf 2a38 e5be
000001b0: 46de 04bd 92e3 d4be da43 dabd 8898 e0be
000001c0: 0930 f23d 9a38 023e 82ae 373e 55b2 e0be
000001d0: f156 38be d735 a1be e62e 493e 37ae febd
000001e0: 1962 e1bf d1cb 6dbd 6c91 adbc 3887 54be
000001f0: 0792 23bf 90e0 49bf 2af5 14be 073a 7ebe
00000200: 6a45 1dbe f2b6 1abf 5ebc 8dbf 0dbe e13d
00000210: 4da5 35bc 7b21 60be f746 ebbe 96d9 8ebf
00000220: 1b00 c23d 18f3 8abe b623 9c3d 33e3 e1bd
00000230: 5325 edbf e82f cabd 6d21 7b3e dff7 383e
00000240: 1e75 12bf 43e7 c3bf 0e2c acbe b3be 41be
00000250: 169c 7dbe 321d 33bf 60ca d13c 2a6a 15be
00000260: 1df6 c7be d9ca cf3d 873e bc3d 1f36 44bf
00000270: 7037 e6be 7be8 cdbf 458a 28be e362 083d
00000280: c964 30bf 14d3 023e bb1e 1abf 3768 a5be
00000290: 9d92 67bd 93e3 c8bd 6784 ec3d 07c7 80be
000002a0: 58f2 13be 6b34 2e3e c7aa 06bf 25a7 20bf
000002b0: eed4 9ebe 8047 29bd 2ec0 cabd 02a4 02bf
000002c0: 2945 b6be 7298 82bf 9c45 1f3e 63b1 f9be
000002d0: 58e5 2cbf d7a2 3abf fc38 09c0 2191 d6bd
000002e0: 08a1 a1bd 43b2 56bd 6947 50be 461e 193e
000002f0: ded4 33bf 4a31 55bf c2b6 b63e cfba a4be
00000300: 0f2f 02bf 2fc7 0bbf 6cb3 28bf f680 d2be
00000310: 9706 e8bd a87d 9d3e cc26 e0be 803f 2a3d
00000320: 0d80 b53e a981 25bf 090c 73bf efc3 5dbf
00000330: 69f4 b3bf 9a4c 303d d8fa c3bd 6863 ce3e
00000340: edf3 3f3d 9002 0dbf 8dda 1a3e 73b4 adbe
00000350: b10e a4be 508e 77be 7e43 4ebf d017 fabe
00000360: 058e aabe a2c4 da3e b85a b5bd efcd 83bf
00000370: f065 a43d 4a97 1bbe 5506 c8bd a97c 05be
00000380: 1edd de3d 4c60 21bf 99fc 57bf d0ee 8b3e
00000390: 3e26 87bf 240b f4be dc3f 0cbf 613f 233e
000003a0: f313 be3d 09ed ddbe 6994 a23e dbb4 b5be
000003b0: 528b 103e 22de 873e e9da 1fbf a9dc f3be
000003c0: cdd1 58bf d535 c7be 73b2 1d3e 3da7 e9be
000003d0: e16c 7dbd 65c8 1ebf 1bf6 66be d6f6 a7be
000003e0: 5d30 20bf 353f 123e 149e 59be eb75 fe3e
000003f0: 4f18 813e 3acd 05bf 325c f8be 8cbb b1bd
0.006460647 -0.3589451 -0.23594055 0.0031268382 -0.7984392 -0.11595673 -0.21818396 0.2883888
0.037936743 0.34190586 0.041647658 -0.5488155 -0.31228545 -0.6033779 -0.46888736 -0.030210834
-0.23349094 -0.06390652 -0.17639096 -0.72967196 0.22392125 -0.4220169 -0.9094139 -0.6264872
-0.9409228 -0.07014982 -0.25467503 -0.22193433 -0.012744305 -0.36775818 0.102795504 -0.42029825
-0.33835456 0.130498 -0.232635 -0.36575118 -0.19779164 0.09401731 -0.39188656 -0.12875648
-0.3441356 -0.6249137 -0.46813947 -0.6931843 -0.42734495 0.3081732 -0.36395347 0.28213218
-0.41252053 -0.071118675 -0.27199048 -0.13013785 -0.15602545 -0.044323888 0.043999195 -0.021212736
-0.46737444 -0.5478444 0.051213805 -0.2811831 -0.005214843 0.098894455 -0.017750366 -0.13069925
-0.25962043 -0.3373743 0.07431778 -0.27399665 0.10474649 -0.12708567 -0.42293876 0.20409226
0.24238741 -0.030378731 -0.24411309 -0.20967455 0.07235208 -0.14611813 0.10651176 -0.049492627
-0.45066744 -0.26960596 0.19282275 -0.5893297 -0.43150988 -0.35127234 -0.54369956 0.06692521
-0.7276935 -0.361774 -0.21138503 0.14239061 0.1261802 -0.25287977 -0.43260688 -0.30050385
-0.51239514 0.027824413 -0.95465225 -0.1738119 -0.27437967 -0.17760779 0.0931998 -0.26430666
-0.6242029 0.13936241 -0.7741519 -0.44769412 -0.03243854 -0.41579872 -0.10657473 -0.43866372
0.11825568 0.12716904 0.17937663 -0.43886057 -0.18001916 -0.3148639 0.19646797 -0.124355726
-1.7608062 -0.058055703 -0.021187507 -0.20754707 -0.63894695 -0.7885828 -0.14546648 -0.24826823
-0.1535851 -0.604354 -1.107311 0.110225774 -0.011086774 -0.21887772 -0.4595258 -1.1160152
0.09472676 -0.2713859 0.07623999 -0.11029663 -1.8527015 -0.09872419 0.2452447 0.18063305
-0.57209957 -1.530495 -0.3362736 -0.18920402 -0.24766573 -0.69966424 0.025609195 -0.1459128
-0.39054957 0.10146112 0.09191614 -0.7664508 -0.4496417 -1.6086572 -0.16458996 0.03329743
-0.68903786 0.12775832 -0.6020314 -0.32306072 -0.056536306 -0.09809031 0.11548691 -0.25151846
-0.14447916 0.17012183 -0.52604336 -0.6275504 -0.31021827 -0.041327953 -0.098999366 -0.51031506
-0.3559964 -1.0202773 0.15553898 -0.48768148 -0.6753745 -0.72904724 -2.144103 -0.104769
-0.078920424 -0.052416097 -0.20339741 0.14952955 -0.70246685 -0.83278334 0.35686308 -0.32173774
-0.50853056 -0.54600805 -0.65898776 -0.41114014 -0.11329382 0.3075993 -0.437796 0.041564465
0.35449257 -0.6465097 -0.9494024 -0.86627096 -1.4058963 0.043041803 -0.09569329 0.40310216
0.046863485 -0.55082035 0.15122433 -0.33926734 -0.3204246 -0.24175382 -0.80571735 -0.48846292
-0.33311477 0.42728144 -0.08855194 -1.0297221 0.080272555 -0.15194431 -0.09766833 -0.13035835
0.108820185 -0.6303756 -0.8436981 0.27330637 -1.0558546 -0.4766475 -0.5478494 0.15942146
0.09281149 -0.43344906 0.31753853 -0.35489544 0.14115646 0.2653666 -0.62443405 -0.47629288
-0.8469513 -0.38908258 0.15400104 -0.45635405 -0.061871413 -0.6202453 -0.2255482 -0.32805508
-0.62573797 0.14281924 -0.21251708 0.4969934 0.25213858 -0.52266276 -0.4850784 -0.0867835

fc1.bias f4 [256]
00000000: 0f74 58be d798 b1be 6d23 a2be 39a4 41be
00000010: 42af e6bd 3d41 153d 2949 73be d787 d4be
00000020: 4d28 d0be ca48 9dbe e8e9 94be 20f0 a1bd
00000030: 9576 ebbe 49a2 fdbe bcbb a3be bc95 8cbe
00000040: 0f4a 14be 250e 1abe 7d84 92be 465b b6be
00000050: 629b 7ebe 13d1 6abe 7edb babd 36db c1be
00000060: 38c2 7fbe 03a9 43be 914e 053e 7594 7f3d
00000070: 3904 b8be f89a c5bd 6cde 00bd 5cfa 51be
00000080: d4b4 8bbe c1b2 2dbe 00bd abbe a155 64be
00000090: a789 0abd 97f9 ffbd fc45 b8be 4130 9a3d
000000a0: da35 d6be 9e46 02bf b38b 21be b56e 43be
000000b0: dbbf c2be 1be0 bcbe f45b a0be 43f9 96be
000000c0: b175 32be 9202 53be e12b babe c2cc 1ebe
000000d0: 18c5 93be dc47 3fbe abbc e1bc 0052 b9be
000000e0: b047 6abe c1e5 abbe 4738 9fbe bf74 6cbe
000000f0: 0476 9abd 7fa4 143e f405 67bd 675b 60be
00000100: 6239 00bd e6ba b4be 53a6 b4be 2c24 4ebe
00000110: 6527 bfbe f54f e8bd b24f bfbe 1671 a2bd
00000120: 9b52 cebe f91e 96bd 01e2 a1be 13c1 a8be
00000130: 996b 33be 8528 0ebe 05d3 82be f185 63be
00000140: 2d64 01bf 757e a7be c176 aabe 494d 8fbe
00000150: 9cff 92be 13a5 a3be 88d8 81be c4d7 06be
00000160: c33e 25be 59ce 95be 715c f7bd 4c27 96be
00000170: b22a 57be 2944 27be a4d4 94be d7de 72be
00000180: 8733 37be eec9 81be a2cb 41be c550 21be
00000190: f59e aebe 96a3 ccbe 4008 91be 34ed aebd
000001a0: 39f5 e1be d449 00bf 0af1 31bd 6175 a3be
000001b0: cfa9 ffbe fa91 ccbd 6242 46be 0e51 54be
000001c0: 1bc8 3abe cb75 99be 7315 a2be e1b8 bebe
000001d0: 9e7b a4be 9e8b 14bd 7eed 863d 6da7 56be
000001e0: f087 72be ab89 94be 4ee9 c5be e661 8cbe
000001f0: 96f9 e2be 91f1 d2be 0727 0bbe 8b70 0fbe
00000200: 4990 23be 2f08 b3be fbec 07be 2cce cebd
00000210: 4c5b 28be 1764 32be b068 e0bd f655 b6be
00000220: c4e1 25be a273 f0be 7200 a8be c82d 96be
00000230: 2768 8abe dc7d 9bbe 8870 7cbe 533a d4be
00000240: 96e4 64be 1a95 51be b7cf 86be ae51 943e
00000250: f83f 14bf 5bb4 15be 577e a6be 4def 74be
00000260: 73c1 78be 2f4b dabe 37c3 6fbe 359d 02be
00000270: 890d eebb 6658 8ebe cb04 2fbe 08c2 20be
00000280: bde8 e8bd a43e 9a3e f188 04bd 0ed0 acbe
00000290: 59e0 85bd ae56 c3be efa1 97be e58f c6be
000002a0: 694d 8cbe 3caa e1be af4a febd 62b5 a4be
000002b0: 7f05 4abb 52db 7dbe fd5e 21be 579c b6be
000002c0: 0a39 20be ed1e 96be 296d 3ebe 753e 0fbf
000002d0: b0e6 0d3f b577 a0be f998 febe f0e8 a7be
000002e0: 5782 cbbe a989 60be 7286 c3bd 5f7d 89bd
000002f0: a863 80be 50f6 15be 7652 c1be 928d 06be
00000300: b92f 1cbe dfa0 1b3f c2e9 82be 298c babe
00000310: a6dc 00be e9da 85be 40e6 fabd 803c 26be
00000320: f0d1 a3be 25b3 92be dffb 7abe 09e5 9cbe
00000330: ad90 a8bd deb2 d7be 385c f5bd b4a2 e43d
00000340: 5aa0 9dba 0bc9 2abe e1ac b2be ffc6 03bf
00000350: 49b9 87be 1775 acbe 12aa 3cbe a8d2 00bf
00000360: d5bf 94be 3392 98be e09f 80be 4db4 98be
00000370: 5aab bdbe 7c2e c1be 5a17 7abe 5a6f a5be
00000380: 5ffc 18bf 6c69 e2bd c131 96be 304d 25be
00000390: ec4d 41bd c8f4 bebe 0abe edbd ca5c b6bb
000003a0: 1b2f 94be f971 b8be 5567 b73b 825a 09bf
000003b0: 9824 aebe 45cc 7fbe 98f4 e7be 1b8f f7be
000003c0: 6269 2bbd 80aa e7bc eaeb 01bf c7c6 dfbd
000003d0: 7439 12bf 526e 0dbe a145 6cbe 5b88 27be
000003e0: 1713 1fbe 108b 5ebe be08 70be 40d3 c0be
000003f0: b9c1 65be 1c22 87bd 115f e0bd 4893 1bbe
-0.21138023 -0.3468692 -0.31667653 -0.18910302 -0.112638965 0.03643917 -0.23758377 -0.41509888
-0.40655747 -0.30719596 -0.29084706 -0.07907128 -0.45988908 -0.49537876 -0.31979167 -0.27457988
-0.14481376 -0.15044458 -0.28616706 -0.3561651 -0.24863961 -0.22931318 -0.09123896 -0.37862557
-0.24976432 -0.19107442 0.13018252 0.06239744 -0.35940722 -0.096486986 -0.031462118 -0.20505661
-0.27286398 -0.1696272 -0.33542633 -0.2229829 -0.03382268 -0.12498777 -0.35990894 0.07528735
-0.4183796 -0.50889003 -0.15775947 -0.190852 -0.38037 -0.3688973 -0.31320155 -0.29487047
-0.17427708 -0.20606449 -0.36361602 -0.15507796 -0.28861308 -0.18679756 -0.027555784 -0.36195374
-0.22878909 -0.33573726 -0.31097624 -0.2309141 -0.07542041 0.14515875 -0.05640216 -0.21909867
-0.031304725 -0.35298842 -0.35283145 -0.20130986 -0.37334743 -0.113433756 -0.3736549 -0.07931726
-0.40297398 -0.07330126 -0.3161774 -0.32959804 -0.17521514 -0.13882644 -0.2555162 -0.22219063
-0.5054348 -0.32713667 -0.33293727 -0.2798865 -0.2871064 -0.3196188 -0.25360513 -0.13168246
-0.16137223 -0.29258993 -0.12078179 -0.29326856 -0.2101238 -0.16334595 -0.29068482 -0.23717819
-0.1789075 -0.25349373 -0.18925336 -0.15753467 -0.3410565 -0.39968556 -0.28326607 -0.08541337
-0.44132403 -0.5011265 -0.043442763 -0.3192549 -0.4993424 -0.0998878 -0.1936126 -0.20734045
-0.18240397 -0.2997268 -0.3165699 -0.37250426 -0.32125562 -0.03626596 0.06588267 -0.20962305
-0.23684669 -0.29011282 -0.3865456 -0.2741844 -0.44331044 -0.41199926 -0.13589107 -0.14007775
-0.15973009 -0.3496718 -0.13273995 -0.10097918 -0.16441077 -0.17420994 -0.109574676 -0.35612458
-0.16199404 -0.4696322 -0.3281284 -0.29331803 -0.27032587 -0.3036946 -0.24652302 -0.41450748
-0.22352824 -0.20467034 -0.2633035 0.28968567 -0.5791011 -0.14619581 -0.32518265 -0.23919411
-0.24292545 -0.42635486 -0.23414312 -0.12755282 -0.007264797 -0.27801818 -0.17091672 -0.15699017
-0.11372516 0.30125916 -0.03235716 -0.33752483 -0.065369315 -0.3815207 -0.29615733 -0.38781658
-0.2740281 -0.4407519 -0.124165885 -0.32169634 -0.003082603 -0.24790695 -0.15758891 -0.35666153
-0.15646759 -0.2932047 -0.18596329 -0.55954677 0.55430126 -0.3134133 -0.49726084 -0.32794905
-0.3974788 -0.21927513 -0.09547128 -0.06713366 -0.25076032 -0.14644742 -0.37758225 -0.13139942
-0.1525258 0.60792345 -0.25568968 -0.3643506 -0.1258417 -0.26143578 -0.12250948 -0.16234016
-0.31996107 -0.286523 -0.24510144 -0.3064349 -0.0823072 -0.42128652 -0.1198048 0.11163846
-0.0012025938 -0.16678254 -0.3489752 -0.5147552 -0.2650855 -0.33683082 -0.18424252 -0.50321436
-0.29052606 -0.2979904 -0.25121975 -0.2982506 -0.37044793 -0.37730777 -0.2442297 -0.32311517
-0.5976009 -0.11055264 -0.29334834 -0.16142726 -0.047193453 -0.37296128 -0.11608513 -0.0055652605
-0.2894219 -0.36024454 0.005597035 -0.5365373 -0.34012294 -0.24980266 -0.45303798 -0.48351368
-0.041848548 -0.028279543 -0.507506 -0.10926586 -0.57118917 -0.13811615 -0.23073436 -0.16360609
-0.15534626 -0.21732736 -0.23440835 -0.3766117 -0.2243718 -0.06598303 -0.109556325 -0.15192902

fc2.weight f4 [4, 256]
00000000: 3767 9dbe 55b5 7ebe ad38 5cbe 9f2b 1cbf
00000010: 0109 6fbe 423b 20bf 8f2e 3dbf e86d 3fbe
00000020: 2d03 2d3e 4a6d cf3c e967 62be b4b4 82be
00000030: 3cac febd 8db3 84be 7700 d23b fd64 07be
00000040: 8bc8 de3c be58 c83d 6e5e aa3d 3a1f ebbd
00000050: 46df 3b3d 3b48 4b3e 6a03 76be 997e df3d
00000060: 4284 12be 715a 803e 569c 043d 0062 61bf
00000070: 32c1 83bd 8059 b3bc 96cd 94be 72cf 023e
00000080: d1c7 0cbb c176 22be 9d6e 02be a47b 8bbb
00000090: c3b4 c0be a28c 7f3d 588c bd3d 3a31 8b3d
000000a0: 27c2 13be 8b60 11be a4fb 23be a1df 9abe
000000b0: ec7d 99bd dd15 80be 637d c9be 291f bb3d
000000c0: 0fdc 8eba e3f3 4b3e 1680 85be c637 6b3e
000000d0: 10aa 0c3e 80b2 d73c 2b5b 57be e8b4 1ebf
000000e0: f84f 8bbe 1179 093e d34a f23d 9893 593e
000000f0: 2cb8 9b3c e249 d5bd b760 1e3e 3816 d53d
00000100: 3e6f e83c 5d20 ad3e d045 a43d 95d3 64be
00000110: 38b1 babd 53ad 863d 6f74 ddbd 178b 093d
00000120: 5e01 b5be de6a 393d cc5b 9dbd c9c1 a4be
00000130: 92c9 96bd 4e7b debe b72a 07be 1898 0dbe
00000140: 5fcc 073e 6f12 2cbd a5c0 6f3e 6546 133e
00000150: 1829 643c 547b 9dbe 4ebf aebd f474 c63e
00000160: c179 1abf 3d41 a53d 5632 08bf 8925 2b3c
00000170: 7854 bbbe 26c9 87be efde 78bd 9b5a 003e
00000180: 7556 333d ba04 a3be 1feb 7ebd 50e0 123f
00000190: 0bb6 3c3d 09f7 19bf 771b 9e3d f18c 063f
000001a0: 1424 36be dc07 183e 3c3a 57be fecb 1cbe
000001b0: c6d7 1cbe b374 023d ef68 8abd a352 8ebe
000001c0: a1c6 013f 851d 30be 726f 6bbb 4813 e5bd
000001d0: abe9 1abf 3c81 273d ea1d 3b3e 4bef 06be
000001e0: 7f72 fbbe e792 a2bd 9871 7b3e 2975 413e
000001f0: 3cd8 b13e bcf8 6b3e 3110 c4bd 286a 2dbd
00000200: 87cd 543e 441f e63d 11be f4bd 257c 1d3f
00000210: ad75 cfbe 12f4 183d c41f 6cbc b5c5 953e
00000220: 95a9 10be 2be1 21bd 15f0 cabe 73ac 9cbd
00000230: 9a89 9a3e 06a1 2a3e c2ef 003d 3ca1 c93e
00000240: 4956 c13e 762d bbbc 41ea 5abd 25aa 8c3e
00000250: 3c05 c53e 8ea3 c0bd a0bb 0fbf 40a4 f3bc
00000260: f19f 6e3d 1cc1 c13e 5d14 42be 2da8 9b3b
00000270: fb33 0d3f 97e2 da3c 43fa 943e 69d1 483d
00000280: 12e9 ebbe 6701 233d 5b9d 553e ee6b 04be
00000290: 0888 b5bd 8c22 a1be 56a8 a93e b64e 0cbe
000002a0: 4760 c4be 56b4 0cbe 63a1 55bd 8d32 4e3d
000002b0: b997 353f ba8d 0ebe 68f0 1cbf 949a 24be
000002c0: 8c04 173e 25b9 8cbc b186 7dbd 8ab1 aa3e
000002d0: 7a13 213e 4262 7abe 7c96 b53e 86ad a93e
000002e0: 140f 803d 45ee 2abe f3f8 b03c dc49 563c
000002f0: b33d 03bd faa7 bb3e 6ce8 6ebe 7293 9abd
00000300: 187f 85bd dd3a 8c3e 86aa 51be fb11 e93d
00000310: 94b7 92bd 369f 403d 5c7c 04bf 4e55 b43d
00000320: c558 ab3b 8b9c 0f3e 94cb d7bd 2b50 c0bb
00000330: 2c5b c03d fadc fd3d 02e2 82ba 30cc 673e
00000340: f2ad c9bc 86e5 f43e 7ee2 c1bd 5889 653c
00000350: ce59 2f3e cf28 5fbe 524f 633d cb3e 0abe
00000360: af08 683e eeeb 663d 11c5 86be 2b4d 81be
00000370: 4a7f 8bbc d702 c2be a0f1 d53c 8eaf 00bf
00000380: 0c82 bf3d 4718 8f3d 1614 23bc 188c 4bbe
00000390: cc41 8c3e 2b23 7c3c 0797 44be 1af0 a13d
000003a0: 9026 5d3e af81 19bf 41ff 4e3d 1915 ab3d
000003b0: aecb 35be aaee 6abe f48c 85be 3ec4 343e
000003c0: 9dd3 823d eae0 4c3d 34ff 633e 16dc 163e
000003d0: 9d7b 3d3e fb55 af3e 098d 893d 80c6 0d3e
000003e0: d3e6 f1bd 5023 423e 9e99 7abe 10bb 963d
000003f0: be8f 82bb 5f1a 0a3d 1c10 6f3e e4fb 903e
-0.3074281 -0.2487386 -0.21505995 -0.6100406 -0.23343278 -0.6259042 -0.7389917 -0.1869427
0.16895743 0.025320668 -0.22109951 -0.2552849 -0.12435195 -0.25918236 0.006408747 -0.13222118
0.027195236 0.09782551 0.08318792 -0.11480565 0.045867227 0.19851772 -0.2402474 0.109128185
-0.14308265 0.25069 0.032375656 -0.8804016 -0.064333335 -0.021893263 -0.290631 0.12774447
-0.0021481405 -0.15865614 -0.12737508 -0.0042566825 -0.3763791 0.062389977 0.09255284 0.067964986
-0.14429532 -0.14196984 -0.16013962 -0.3024874 -0.07494721 -0.2501668 -0.39353475 0.09136803
-0.0010899323 0.19917254 -0.26074284 0.22970495 0.13736749 0.026330233 -0.21030872 -0.6199479
-0.2720945 0.1342509 0.11830678 0.21247709 0.019008718 -0.10414483 0.15466581 0.104046285
0.028373357 0.33813754 0.08021128 -0.22346337 -0.09115833 0.06576028 -0.108132236 0.033579912
-0.35352606 0.045267932 -0.076835245 -0.32179096 -0.07362665 -0.4345345 -0.13199888 -0.1382755
0.13261555 -0.042009767 0.23413332 0.14382322 0.013925813 -0.30758154 -0.08532582 0.38761103
-0.6034203 0.08069084 -0.53201807 0.010445961 -0.36587882 -0.26520652 -0.06075948 0.12534563
0.043783624 -0.31839544 -0.062235948 0.57373524 0.046072047 -0.6014257 0.07720082 0.5255881
-0.177872 0.14846748 -0.21018308 -0.15312192 -0.15316686 0.031849574 -0.06758296 -0.27797422
0.5069371 -0.17198761 -0.003592458 -0.11185318 -0.605128 0.040894732 0.1827313 -0.1317722
-0.4911079 -0.07938176 0.24555051 0.1889235 0.34735286 0.23044103 -0.09573401 -0.042337567
0.20781527 0.11236432 -0.11950315 0.61517555 -0.40519467 0.03734214 -0.01441187 0.292524
-0.1412719 -0.039521378 -0.39636293 -0.076500796 0.30183107 0.16662988 0.03147865 0.39380825
0.37761143 -0.022848826 -0.05344606 0.2747356 0.38480556 -0.094061956 -0.5614567 -0.029741406
0.058258 0.37842643 -0.1895308 0.0047502727 0.5515744 0.026719375 0.29097185 0.049027834
-0.46076256 0.03979626 0.20860808 -0.12931797 -0.088638365 -0.3147167 0.33136243 -0.13701901
-0.38354704 -0.13740668 -0.052155863 0.050341178 0.70934635 -0.13921252 -0.6130433 -0.16074592
0.14747828 -0.017178128 -0.06189603 0.33338577 0.15730086 -0.24451545 0.35466373 0.331402
0.06252876 -0.16692455 0.021603083 0.013079133 -0.032041263 0.36651593 -0.2333085 -0.07547654
-0.06518382 0.2738866 -0.20475206 0.113803826 -0.07163921 0.047026835 -0.5175226 0.08805333
0.005229088 0.1402456 -0.10536876 -0.0058689318 0.0939239 0.123956636 -0.0009985568 0.22636485
-0.024619076 0.47831362 -0.09467028 0.014009796 0.17124102 -0.21792911 0.055495568 -0.13500516
0.22659563 0.056377344 -0.26322225 -0.25254187 -0.01702847 -0.37892792 0.026116192 -0.50267875
0.09350976 0.069870524 -0.009953519 -0.1987766 0.2739395 0.015389244 -0.19198237 0.07907124
0.21596742 -0.59963506 0.050536398 0.083536334 -0.17753479 -0.22942606 -0.260841 0.17652985
0.06388018 0.050019182 0.22265321 0.14732394 0.18504186 0.34245285 0.067163534 0.13845253
-0.11811604 0.18958783 -0.24472663 0.07359898 -0.0039844206 0.033716556 0.23345989 0.28317177

fc2.bias f4 [4]
00000000: e353 2a3f 3458 c63e 6c75 f03e 1d03 c93e
0.6653425 0.3873917 0.46964586 0.39260188
