checkpoint3.pth (torch_old, 43809 bytes, 4 tensors)

fc1.weight f4 [256, 37]
0	0xbeb5f1cd	-0.35536042
1	0x3ecbcaf9	0.39803293
2	0xbfed3e0c	-1.853456
3	0xbe279453	-0.16365175
4	0xbb7c5278	-0.0038501304
5	0xbfcac104	-1.5840154
6	0x3e91b344	0.2845708
7	0x3f21ecd2	0.63251984
8	0xbf7bbb62	-0.983328
9	0xbeedf16c	-0.46473253
10	0xbe3cf1d0	-0.18451619
11	0xbf526cf4	-0.821975
12	0x3d813fda	0.06311007
13	0xbf353a54	-0.70792127
14	0xbee9158a	-0.45524246
15	0xbf94e5f2	-1.1632674
16	0xbf05a086	-0.52198064
17	0x3e3fb55d	0.18721528
18	0x3e801f8d	0.2502407
19	0xbf1fc214	-0.62405515
20	0x3d797fba	0.060912825
21	0x3e53cd40	0.20683765
22	0xbe875fc3	-0.26440248
23	0x3db63950	0.0889765
24	0xbf08c82b	-0.5343043
25	0xbf74596a	-0.95448935
26	0xbe1ecf2f	-0.15508722
27	0x3d03bc62	0.032162078
28	0x3dc8bc2b	0.09801515
29	0xbf31dcb7	-0.6947741
30	0xbe02bda7	-0.12767659
31	0x3f0e643f	0.55621713
32	0xbd558144	-0.05212523
33	0xbf155105	-0.5832675
34	0x3eb665af	0.35624453
35	0x3f0c23d8	0.54742193
36	0xbe0cf385	-0.1376477
37	0xbcfa8c4c	-0.030584477
38	0xbf080eb0	-0.5314741
39	0xbdfa1181	-0.1221037
40	0xbe7d8eaf	-0.2476146
41	0xbfab5711	-1.3385946
42	0xbd47862f	-0.04871195
43	0xbf0b0ecc	-0.54319453
44	0xbebab8c8	-0.36469102
45	0xbf055b17	-0.5209212
46	0xbfa52b07	-1.2903756
47	0x3daf9873	0.08573999
48	0xbf1501eb	-0.5820605
49	0xbf08344a	-0.53204787
50	0xbea58156	-0.32325238
51	0x3ea19b29	0.3156369
52	0xbe915567	-0.2838547
53	0xbec33695	-0.3812758
54	0x3e4b63b8	0.19862258
55	0xbf55fae3	-0.8358595
56	0xbedd9303	-0.43276224
57	0xbe88887a	-0.26666623
58	0xbe52cb51	-0.20585372
59	0xbdf052e9	-0.11734564
60	0xbf4096af	-0.75229925
61	0xbf0f96ba	-0.56089365
62	0xbe92d927	-0.286813
63	0xbe11c471	-0.14235093
64	0xbf146dc3	-0.57979983
65	0xbf152677	-0.5826182
66	0xbf5db6bd	-0.8660696
67	0xbdcfb5b6	-0.101420805
68	0xbd2bf4a7	-0.041981366
69	0xbe690432	-0.22755507
70	0xbf42eae3	-0.7613966
71	0xbe9a0652	-0.30082947
72	0x3e8d9f8f	0.27660796
73	0xbd9e0ab3	-0.077168845
74	0xbf6adfd6	-0.91747797
75	0xbd6a8c3b	-0.05726264
76	0x3e9316b6	0.28728265
77	0xbfba7261	-1.4566156
78	0xc0023dc2	-2.0350194
79	0xbf570a3d	-0.84
80	0xbf009e0a	-0.5024115
81	0xbe9bcdb8	-0.30430388
82	0x3eff4e5a	0.49864465
83	0xbf7f3e3e	-0.9970435
84	0xbd38c1ea	-0.045106806
85	0xbd98bc38	-0.07457775
86	0xbd39815c	-0.045289382
87	0xbf67d089	-0.90552574
88	0x3efc06b7	0.49223873
89	0xbf967abe	-1.1756208
90	0xbe88bfb9	-0.26708773
91	0x3d8d23cc	0.06891593
92	0xbd7a8781	-0.061164383
93	0xbfb6ee33	-1.4291443
94	0xbe381c19	-0.17979468
95	0xbdd31f07	-0.10308652
96	0xbed32fb2	-0.41247326
97	0x3e48d8fe	0.19614026
98	0xbe4c40a2	-0.1994653
99	0xbfa91bee	-1.3211648
100	0x3ede7b7d	0.4345359
101	0x3ea02225	0.3127605
102	0xbf0e46be	-0.55576694
103	0xbc6f7106	-0.014614349
104	0xbe0d2833	-0.13784866
105	0xbf120f33	-0.5705444
106	0x3eb93db2	0.36179882
107	0xbf477120	-0.7790699
108	0x3e6fd22b	0.23420016
109	0x3eef39a3	0.4672366
110	0xbd4b9977	-0.049706902
111	0x3ece8590	0.40336275
112	0x3e895d6b	0.26829085
113	0x3e927423	0.2860423
114	0x3eea0f11	0.4571462
115	0x3dac6a8c	0.0841876
116	0xbd068b89	-0.032847915
117	0xbd383241	-0.0449698
118	0x3dc17c7a	0.0944757
119	0x3e06dc05	0.13169868
120	0x3da2d1ed	0.079501964
121	0xbc7f2374	-0.0155724175
122	0xbcee879b	-0.029117396
123	0x3da7fdfd	0.08202741
124	0x3e38912c	0.18024129
125	0xbd13f606	-0.036123298
126	0x3efe5dbd	0.49680892
127	0xbf93c9e1	-1.1545984
128	0xbf32dc79	-0.69867665
129	0xbfaaf012	-1.3354514
130	0xc080a541	-4.0201726
131	0xbc8689a8	-0.016423061
132	0x3c87acac	0.016561829
133	0x3e8d18b0	0.27557898
134	0x3e10d2e9	0.14142956
135	0x3e0ea56b	0.1393029
136	0x3a89b59f	0.0010506398
137	0xbe3a6178	-0.18201244
138	0x3be6c1f6	0.007042165
139	0x3f03d3f2	0.5149528
140	0x3f18ef86	0.59740484
141	0xbe1f1de2	-0.15538743
142	0x3e3f45fe	0.18679044
143	0x3df7c80a	0.12098701
144	0x3e23ef6e	0.16009304
145	0x3e084b98	0.13310087
146	0xbdacfaaa	-0.08446248
147	0xba711812	-0.0009197007
148	0x3c891445	0.016733298
149	0x3df74ff6	0.12075798
150	0x3d3c5b07	0.045985248
151	0x3c19b012	0.009380357
152	0xbd9dcbdb	-0.07704898
153	0x3f5b7e61	0.85739714
154	0xbf9e4911	-1.2366048
155	0xbfab8229	-1.3399097
156	0xbf9a92b1	-1.2076017
157	0xc05b7b4d	-3.4294007
158	0x3cea544a	0.028604645
159	0x3e6ea899	0.23306502
160	0x3dd06b35	0.10176698
161	0x3e60fee4	0.21972233
162	0x3da2b11c	0.07943937
163	0x3d554a4c	0.05207281
164	0x3dedcaa0	0.11610913
165	0x3e1b91f4	0.15192395
166	0x3e3c52f9	0.18391027
167	0x3e2a23b2	0.16615179
168	0x3dccac00	0.09993744
169	0x3e103d36	0.1408585
170	0x3eaa9a55	0.3332087
171	0x3ea418de	0.32050222
172	0x3dac10fb	0.08401676
173	0x3eaff8e9	0.3436959
174	0x3cd711fc	0.026253693
175	0x3e70aa0f	0.23502372
176	0x3de1a168	0.11017114
177	0x3cf7b67f	0.030238388
178	0x3ee169fc	0.44026172
179	0x3e22d978	0.1590327
180	0x3e3c6caf	0.18400835
181	0xbd8bbcf4	-0.06823149
182	0xbee732a9	-0.45155838
183	0x3c195a8e	0.009359969
184	0xbca542bc	-0.020173423
185	0xbe26480c	-0.16238421
186	0xbf235963	-0.6380827
187	0x3d168855	0.03675111
188	0xbead9bb9	-0.3390787
189	0xbe873dba	-0.2641428
190	0xbe250f94	-0.16119224
191	0x3d528710	0.051398337
192	0xbe9c1819	-0.30487135
193	0xbea30359	-0.31838492
194	0xbe8735bb	-0.2640818
195	0xbed4ce05	-0.4156343
196	0xbe9b709b	-0.3035935
197	0xbdeb5fb0	-0.1149286
198	0xbdbf8781	-0.09352017
199	0xbe4769fe	-0.19474027
200	0xbf1130fd	-0.56715375
201	0x3d5d70c9	0.05406264
202	0xbe2b771f	-0.1674466
203	0x3cd1733c	0.025567643
204	0xbde9e7c6	-0.114211604
205	0xbe487759	-0.19576778
206	0xbf517186	-0.8181385
207	0x3e84a024	0.25903428
208	0xbecd100d	-0.40051308
209	0xbe10a0b9	-0.14123811
210	0x3d8e8cc0	0.0696044
211	0xbf13e87e	-0.5777663
212	0xbe169739	-0.14706124
213	0xbf1449cc	-0.57925105
214	0xbc12ae66	-0.008952713
215	0xbe3b9367	-0.18317948
216	0xbd8f95ec	-0.07011017
217	0xbe7e4a3e	-0.24833009
218	0xbddcb6e3	-0.107770704
219	0xbe87eea6	-0.26549262
220	0x3d4c431f	0.0498687
221	0xbc9533f7	-0.018213255
222	0xbc6d51bb	-0.014484818
223	0xbe6a3dcd	-0.22875138
224	0xbdfe2b35	-0.12410585
225	0xbd0773b8	-0.033069342
226	0xbf61e7b5	-0.8824418
227	0xbf526dc5	-0.82198745
228	0x3e827614	0.2548071
229	0x3e40ede0	0.18840742
230	0x3e2de7ad	0.16982909
231	0xbf058bdd	-0.5216654
232	0x3e5dc729	0.21658005
233	0xbd9396c9	-0.07206494
234	0xbddb7f8e	-0.107176885
235	0xbe8e507b	-0.27795777
236	0xbd2abdd4	-0.04168494
237	0xbe797beb	-0.24363677
238	0xbed33c00	-0.41256714
239	0xbd32a979	-0.043618653
240	0x3e0f860d	0.1401598
241	0xbd9d2b32	-0.076742545
242	0xbf0b7f71	-0.54491335
243	0x3e8f8404	0.28030407
244	0xbe8f637f	-0.28005597
245	0xbe89946a	-0.26871043
246	0x3d814055	0.063110985
247	0x3b80a6b5	0.003926123
248	0xbeb43a29	-0.35200623
249	0xbeaf666d	-0.34257832
250	0xbf2fca01	-0.6866761
251	0xbecc6998	-0.39924312
252	0xbe120b4c	-0.14262122
253	0xbe259114	-0.16168624
254	0xbdbf9174	-0.09353915
255	0xbf391781	-0.7230149

fc1.bias f4 [256]
0	0xbe3bb2d9	-0.18329944
1	0xbea60773	-0.32427558
2	0xbe848c16	-0.25888127
3	0xbe2bf230	-0.16791606
4	0x3ea46ccb	0.32114252
5	0xbe9caa76	-0.305988
6	0xbf0ac47c	-0.5420606
7	0xbed97208	-0.4246981
8	0xbf0d7430	-0.55255413
9	0xbedf8868	-0.43658757
10	0xbeb85a15	-0.36006227
11	0x3d72d052	0.0592807
12	0xbecd3a3e	-0.40083498
13	0xbef6fcdd	-0.48239794
14	0xbe87069b	-0.26372227
15	0xbe76baa5	-0.24094637
16	0xbd01ba67	-0.031671908
17	0xbeb92e23	-0.36168012
18	0xbe512124	-0.20422798
19	0xbec460c0	-0.38355064
20	0xbea0b133	-0.31385192
21	0xbe6b8341	-0.22999288
22	0xbeb2eafa	-0.34944898
23	0xbee92535	-0.455362
24	0xbf105ca7	-0.56391376
25	0xbe16f295	-0.14740975
26	0xbee3f0fb	-0.4451979
27	0xbe338a0d	-0.17533131
28	0xbefd2368	-0.49441075
29	0xbd1129d4	-0.03544028
30	0xbd9e2db1	-0.07723559
31	0xbeeddc74	-0.46457255
32	0xbeede7ff	-0.4646606
33	0xbefc0774	-0.49224436
34	0xbee6cd39	-0.45078447
35	0x3e672359	0.22572078
36	0xbec53d6c	-0.38523424
37	0xbcdff589	-0.02733876
38	0xbf0d1d0a	-0.55122435
39	0xbdeb164c	-0.11478862
40	0xbf234a67	-0.63785404
41	0xbea9eb51	-0.33187345
42	0xbe3b3b46	-0.1828433
43	0xbe535dd8	-0.20641267
44	0xbec8b944	-0.39203846
45	0xbec422b6	-0.38307732
46	0xbf142bf9	-0.57879597
47	0xbeebec47	-0.46078703
48	0xbf009ed0	-0.5024233
49	0xbe9690ff	-0.29407498
50	0xbeb26ea7	-0.34850046
51	0xbe39632e	-0.1810424
52	0xbe4b9ea8	-0.19884741
53	0xbe8f2064	-0.279544
54	0xbeb8b79d	-0.36077586
55	0xbeb2f92a	-0.34955722
56	0xbe015bb6	-0.12632641
57	0xbeeacb01	-0.45858005
58	0xbd998d23	-0.07497623
59	0xbe971ed8	-0.2951572
60	0xbed63adc	-0.4184178
61	0xbeb61eea	-0.3557046
62	0xbd890227	-0.06689864
63	0xbe58c0d5	-0.2116731
64	0x3d76a628	0.060217053
65	0xbe87873e	-0.2647037
66	0xbefd42c2	-0.49464995
67	0xbf231504	-0.6370394
68	0xbea3b0dd	-0.31970873
69	0xbed22450	-0.4104333
70	0xbf012376	-0.50444734
71	0xbe3c903a	-0.18414393
72	0xbf3926f3	-0.72325057
73	0xbe2f66c7	-0.1712905
74	0xbebd5baa	-0.36983997
75	0xbf137c49	-0.5761152
76	0xbdd03633	-0.10166588
77	0xbe4fd93f	-0.20297717
78	0xbee90f8c	-0.45519674
79	0xbe8a6dd3	-0.27036914
80	0xbf19f6d1	-0.60142237
81	0xbe5f4c06	-0.21806344
82	0xbebf060e	-0.37309307
83	0xbcaf2f97	-0.021384997
84	0xbf01f2cc	-0.50761104
85	0x3c1fc415	0.009751339
86	0xbe84482a	-0.25836307
87	0xbeab98b3	-0.33514938
88	0xbe7ceb2a	-0.24699083
89	0xbe71f421	-0.23628284
90	0xbce30859	-0.027713941
91	0xbe7cac8b	-0.24675195
92	0xbf018042	-0.5058633
93	0xbc24a1a8	-0.0100483075
94	0xbe981ff6	-0.29711884
95	0xbe3fc206	-0.18726358
96	0xbe9159ce	-0.28388828
97	0xbe682942	-0.22671989
98	0xbe3d6fa4	-0.18499619
99	0xbe865364	-0.26235497
100	0xbf0315aa	-0.5120493
101	0xbef8c68f	-0.48588988
102	0xbea835d0	-0.32853556
103	0xbe8f8484	-0.2803079
104	0xbf17ffd0	-0.59374714
105	0xbf133ad3	-0.57511634
106	0xbe8f0549	-0.2793372
107	0xbee77aa4	-0.45210755
108	0xbf0e1fbd	-0.5551718
109	0x3e918e81	0.28429034
110	0xbe86e5b2	-0.2634712
111	0xbe4c748d	-0.19966336
112	0xbe3af238	-0.18256462
113	0xbeb59184	-0.35462582
114	0xbea57446	-0.32315272
115	0xbed457c1	-0.414732
116	0xbf0bfc1a	-0.5468155
117	0xbed05efc	-0.40697467
118	0xbeae4110	-0.34034014
119	0xbed0ef92	-0.40807778
120	0xbf2b8bcd	-0.67010194
121	0xbee6d272	-0.45082432
122	0xbeb9da75	-0.36299482
123	0xbcfdb7ce	-0.030971434
124	0xbe82dc2f	-0.25558612
125	0xbeeb07ff	-0.45904538
126	0xbd2f40dd	-0.042786468
127	0xbe911a9a	-0.28340608
128	0xbd680cfa	-0.056653
129	0xbe900ff7	-0.2813718
130	0xbf35f44c	-0.7107589
131	0xbe8d1f65	-0.27563015
132	0xbf00b0fa	-0.50270045
133	0xbf2481e7	-0.64260715
134	0xbee3f920	-0.44526005
135	0xbf050811	-0.51965433
136	0xbf015321	-0.5051747
137	0xbea6723c	-0.3250903
138	0xbe9aa826	-0.30206412
139	0xbef33b45	-0.47506157
140	0xbea7db9b	-0.32784733
141	0xbeed7851	-0.46380857
142	0xbeb3df19	-0.35131148
143	0xbeafe4c4	-0.34354222
144	0xbecedbd1	-0.40402082
145	0xbf228d75	-0.63497096
146	0xbe819022	-0.25305277
147	0xbe379861	-0.17929222
148	0xbebf77fc	-0.37396228
149	0xbe745462	-0.23860314
150	0xbefebb51	-0.49752286
151	0xbe91aa66	-0.28450316
152	0xbf1bf3c7	-0.6091885
153	0xbed454bd	-0.414709
154	0xbe55e02c	-0.20886296
155	0xbec205b1	-0.37894967
156	0xbea4b5b0	-0.32169867
157	0xbf0ef0c2	-0.5583612
158	0xbe44a66e	-0.19204113
159	0xbece8a60	-0.40339947
160	0xbec808fe	-0.3906936
161	0x3f490088	0.78516436
162	0xbe4a0afd	-0.19730754
163	0xbef4231c	-0.47683036
164	0xbe7988b6	-0.24368557
165	0xbeb7282e	-0.35772842
166	0xbecaf33f	-0.39638707
167	0xbed9d667	-0.42546389
168	0xbefd98a1	-0.4953051
169	0xbed178d3	-0.40912494
170	0xbda4eecb	-0.08053359
171	0xbecbc2af	-0.3979697
172	0xbe758c44	-0.23979288
173	0xbe5d70d7	-0.21625076
174	0xbe26d3aa	-0.16291681
175	0xbf19275d	-0.5982569
176	0xbe76a927	-0.24087964
177	0xbeb09190	-0.34486055
178	0x3cf3bb45	0.029752383
179	0xbf387e11	-0.7206736
180	0x3f1df1e3	0.61697215
181	0xbe99b078	-0.30017447
182	0xbf1d78b3	-0.615123
183	0xbf098e37	-0.5373263
184	0xbf0affc7	-0.54296535
185	0xbe043a0d	-0.1291277
186	0xbdfc702a	-0.12326081
187	0xbd71248f	-0.058872756
188	0xbe88c541	-0.26712993
189	0xbe519743	-0.20467858
190	0xbf073629	-0.52817017
191	0xbe885929	-0.26630524
192	0xbec6d37e	-0.3883323
193	0x3f1918f9	0.5980373
194	0xbec6baba	-0.38814336
195	0xbe38b30f	-0.18037055
196	0xbe0eeddb	-0.13957922
197	0xbee9499c	-0.45563972
198	0xbea951dd	-0.3307027
199	0xbdc64197	-0.09680479
200	0xbe9ee723	-0.31035718
201	0xbeb4ba95	-0.352986
202	0xbf0a6fc5	-0.54076797
203	0xbead7993	-0.33881816
204	0xbec106e2	-0.37700564
205	0xbedbd1b1	-0.4293342
206	0xbe8c611b	-0.27417836
207	0xbdfa3435	-0.12216989
208	0xbe926538	-0.2859285
209	0xbe9a4659	-0.30131796
210	0xbecff7db	-0.40618786
211	0xbf145150	-0.57936573
212	0xbef86885	-0.48517242
213	0xbef78c8f	-0.48349425
214	0xbe4ecc56	-0.20195135
215	0xbf2a137d	-0.66435987
216	0xbe8a63c3	-0.27029237
217	0xbec03f63	-0.3754836
218	0xbecf8d85	-0.40537658
219	0xbe590f57	-0.21197258
220	0xbe9a3d3a	-0.30124837
221	0xbee602f8	-0.4492414
222	0xbe9a2b20	-0.30111027
223	0xbecf9c7f	-0.40549085
224	0xbf395e60	-0.7240963
225	0xbeb27487	-0.34854528
226	0xbe9bf80b	-0.3046268
227	0xbeb17b16	-0.3466422
228	0xbe479291	-0.19489504
229	0xbf0179bf	-0.50576395
230	0xbec40b39	-0.38289812
231	0xbdf0d0c1	-0.11758567
232	0xbee81a09	-0.45332363
233	0xbee1ab15	-0.44075838
234	0xbd5316f7	-0.051535573
235	0xbf0d26e2	-0.55137455
236	0xbe9271c6	-0.28602427
237	0xbed2a331	-0.4114013
238	0xbf05cc30	-0.5226469
239	0xbf1dab27	-0.6158928
240	0xbea0c8ff	-0.31403348
241	0x3e1963dd	0.14979501
242	0xbeed69bf	-0.4636974
243	0xbeb0d212	-0.3453527
244	0xbea776db	-0.32707867
245	0xbeb63aef	-0.35591838
246	0xbed2d0a3	-0.41174802
247	0xbde04d82	-0.109522834
248	0xbef0e166	-0.47046965
249	0xbe286bdd	-0.16447397
250	0xbe233028	-0.15936339
251	0xbf0dfe24	-0.5546591
252	0xbed6ab8d	-0.41927758
253	0xbe925517	-0.28580543
254	0xbe97ef3b	-0.29674706
255	0xbec2225b	-0.37916836

fc2.weight f4 [4, 256]
0	0xbdadbaf4	-0.08482924
1	0xbedd8b75	-0.4327046
2	0xbe4337b4	-0.19064218
3	0xbd6df108	-0.058091193
4	0x3eb89fd1	0.3605943
5	0xbbe1a6c2	-0.006886334
6	0xbea8a464	-0.3293792
7	0x3d5a4071	0.053284112
8	0xbd156892	-0.03647668
9	0xbe258981	-0.16165735
10	0x3ec1937e	0.3780784
11	0xbe798c79	-0.24369992
12	0xbe937b82	-0.28805166
13	0x3e9f98e3	0.3117133
14	0xbe172029	-0.14758362
15	0xbdbd3d35	-0.0924019
16	0xbecd7301	-0.40126804
17	0xbef7522a	-0.48304874
18	0xbe13ee3a	-0.14446345
19	0xbde24211	-0.110477574
20	0xbeab36fa	-0.3344038
21	0xbd643ac6	-0.055720113
22	0x3d8126fb	0.06306263
23	0x3e4ddeaf	0.20104478
24	0x3dab4a5d	0.08363793
25	0xbf09ca13	-0.53823966
26	0x3ec33c61	0.38132003
27	0x3c9af266	0.018914413
28	0x3cb61d0c	0.022230648
29	0xbf4484e5	-0.7676528
30	0xbf08aa39	-0.5338474
31	0x3db83a82	0.089955345
32	0x3e5045ad	0.20339079
33	0x3e443750	0.19161725
34	0xbb5369e2	-0.0032259156
35	0xbe8ec41c	-0.27883995
36	0xbcdbea9a	-0.026845265
37	0x3dcd10a3	0.10012939
38	0xbe418574	-0.18898565
39	0xbe799b55	-0.2437566
40	0x3cf5b015	0.029991189
41	0xbdfef4cf	-0.12449037
42	0xbe166be2	-0.14689592
43	0xbd25d92c	-0.040490314
44	0xbe96efd8	-0.2947986
45	0xbed07fc1	-0.40722468
46	0xbdff3059	-0.124603935
47	0x3dc650a6	0.09683351
48	0x3dfada62	0.122486845
49	0xbdf56f64	-0.11984137
50	0xbbff0061	-0.0077820276
51	0x3dbb1ddb	0.09136554
52	0xbd0dd5a1	-0.03462756
53	0xbcce6a23	-0.025197094
54	0x3e3738f0	0.17892814
55	0xbee24e43	-0.44200334
56	0x3e2eafff	0.17059325
57	0x3d960c04	0.073265105
58	0xbf1ea0c1	-0.6196404
59	0x3d65fcac	0.05614917
60	0x3e1cb391	0.15302874
61	0xbe7ddccd	-0.2479126
62	0x3de67b41	0.112539776
63	0x3f1bc05b	0.60840386
64	0x3e348a02	0.17630771
65	0x3decd601	0.115642555
66	0x3e27cf63	0.16387706
67	0x3e0626cc	0.13100737
68	0xbe194be5	-0.14970358
69	0x3e2dbf0c	0.1696741
70	0x3e76e31e	0.24110076
71	0xbdefc73a	-0.11707921
72	0x3dee5a19	0.116382785
73	0x3e564cbb	0.20927708
74	0xbe97e60d	-0.29667702
75	0x3db28ab6	0.08717863
76	0xbf2be6ec	-0.67149234
77	0xbd532047	-0.051544454
78	0xbe9c3f9f	-0.3051729
79	0x3dc07c2d	0.09398685
80	0xbbe301ad	-0.00692769
81	0x3d42f72e	0.04759901
82	0x3e493bce	0.1965172
83	0xbeb70bae	-0.35751098
84	0x3da3388e	0.07969771
85	0xbe7e2a3c	-0.24820799
86	0x3dc18647	0.094494395
87	0x3e9f2c94	0.31088698
88	0xbebd344f	-0.3695397
89	0x3ec22fca	0.37927085
90	0x3d5a07d5	0.053230125
91	0x3dfb34e6	0.12265949
92	0xbd120907	-0.03565314
93	0x3d0dba9b	0.03460179
94	0x3ef25707	0.47332022
95	0xbe622b1a	-0.22086754
96	0xbeab0dd6	-0.33408993
97	0xbd7fc8dd	-0.062447418
98	0x3ae7d6db	0.0017687933
99	0xbcc88517	-0.024477525
100	0x3e94fa0a	0.29097015
101	0xbf30718d	-0.68923265
102	0x3ed7f319	0.42177656
103	0x3e4a7b3d	0.19773574
104	0x3d5b43ab	0.05353133
105	0x3e7e78e5	0.24850805
106	0xbc3067cb	-0.010766934
107	0xbedc7446	-0.4305746
108	0xbe3cf2d0	-0.18452
109	0xbe8f7d7f	-0.28025433
110	0xbd449e5f	-0.048002597
111	0x3ceca7e4	0.02888865
112	0x3e74f834	0.23922807
113	0x3c713575	0.014722218
114	0x3e5f23b4	0.21790963
115	0xbe8bc264	-0.27296746
116	0xbe7bb396	-0.24580225
117	0x3cec767a	0.028865088
118	0xbd4ccc0b	-0.049999278
119	0xbc7a6feb	-0.015285472
120	0x3e03e3f5	0.12879927
121	0x3e248da4	0.16069657
122	0xbe1980f6	-0.14990601
123	0xbf1b1251	-0.60574824
124	0xbeaa315b	-0.3324078
125	0xbe3c27c1	-0.1837454
126	0xbcc6e860	-0.024280727
127	0xbd0afc5e	-0.033932082
128	0x3cd7133b	0.026254287
129	0xbee88553	-0.45414218
130	0xbe0117ee	-0.12606785
131	0xbf51db5a	-0.8197533
132	0x3d75a40f	0.05997091
133	0x3e19e31e	0.15028045
134	0x3e0b558c	0.13606852
135	0x3d981e6e	0.07427679
136	0x3ea1f02b	0.31628546
137	0xbe9ba245	-0.3039724
138	0x3de11321	0.10989977
139	0xbe03e288	-0.12879384
140	0xbec2409e	-0.37939924
141	0x3d4c5fda	0.0498961
142	0x3edaefc6	0.42761058
143	0xbe028614	-0.12746459
144	0x3ed905af	0.4238715
145	0x3e8d9104	0.276497
146	0x3e0e22c5	0.13880451
147	0x3da6908e	0.0813304
148	0xbe7386a5	-0.23781832
149	0xbe84fc8e	-0.25973934
150	0x3aaade84	0.0013036286
151	0xbf7c2d0c	-0.98506236
152	0xbecccc9d	-0.39999858
153	0x39b467bb	0.0003440956
154	0xbe396bbb	-0.18107502
155	0x3dff2e6c	0.12460026
156	0x3e48bd61	0.19603492
157	0x3e833e97	0.2563369
158	0xbf07df06	-0.5307468
159	0xbdaf9b0e	-0.08574496
160	0x3e274a3d	0.16336913
161	0x3e8a61b9	0.2702768
162	0xbd93f6ea	-0.072248295
163	0xbd1712ef	-0.03688329
164	0xbdaaa156	-0.08331554
165	0x3dcb9769	0.099409886
166	0x3e679c5f	0.22618245
167	0x3e697456	0.22798285
168	0x3ebc360d	0.36759987
169	0xbe41efa7	-0.18939076
170	0xbe127496	-0.14302287
171	0xbd6c0e71	-0.05763096
172	0xbed5246e	-0.41629356
173	0xbe98717f	-0.2977409
174	0xbdfc5e48	-0.1232267
175	0xbe9873c0	-0.2977581
176	0xbd9ec196	-0.07751767
177	0x3e010fed	0.12603731
178	0xbe82687e	-0.25470346
179	0xbe555bba	-0.20835772
180	0x3e3936c6	0.180873
181	0xbf2db4c6	-0.67853963
182	0x3d59269f	0.053015348
183	0xbd0a6f30	-0.033797443
184	0x3df35d50	0.11883032
185	0x3d300302	0.04297162
186	0xbe7d15ba	-0.2471532
187	0x3e67ca18	0.22635686
188	0xbea1b370	-0.31582212
189	0xbdf71822	-0.1206515
190	0x3e381159	0.17975368
191	0x3c949cfe	0.018141266
192	0xbec2e777	-0.3806722
193	0x3e8bdc2a	0.2731641
194	0x3e9e5cb6	0.30930108
195	0xbe5abac5	-0.2136031
196	0xbe8b1730	-0.27166128
197	0xbe66ad78	-0.2252711
198	0xbd3e75a1	-0.0464989
199	0x3cd7189c	0.026256852
200	0x3e87adbb	0.26499733
201	0x3c75398e	0.014967335
202	0x3cc8f7fa	0.024532307
203	0xbdc8ccc7	-0.09804683
204	0xbd77b180	-0.06047201
205	0x3e64456e	0.2229211
206	0xbdfb96d3	-0.12284627
207	0x3e0a4fc5	0.13506992
208	0x3e827df7	0.2548673
209	0xbeb842b1	-0.35988382
210	0xbd987743	-0.07444622
211	0xbdc7f0c3	-0.097627185
212	0xbdf6587e	-0.12028597
213	0x3e9ffd6e	0.3124804
214	0xbe4fcf20	-0.20293856
215	0x3e195a64	0.14975888
216	0xbd915c5c	-0.07097694
217	0x3e175924	0.14780098
218	0x3dcd23fa	0.100166276
219	0xbdcc5dc4	-0.09978822
220	0x3e5bcc7e	0.21464726
221	0xbcff8f64	-0.031196304
222	0x3da02b18	0.078207195
223	0xbe39da30	-0.18149638
224	0x3e3f6a77	0.18692957
225	0x3ced587a	0.028972853
226	0x3d5560b3	0.052094173
227	0x3e1128d5	0.14175732
228	0x3d8630c9	0.06552274
229	0xbb528629	-0.0032123423
230	0xbe03d972	-0.12875918
231	0xbf4c1a56	-0.79727685
232	0x3df5f448	0.120094836
233	0x3ea7a787	0.32745
234	0xbe465874	-0.1936968
235	0xbe849460	-0.2589445
236	0x3c1109f4	0.008852471
237	0x3ec13a93	0.3774
238	0x3c4baf07	0.0124318665
239	0x3e142176	0.1446589
240	0x3e8dfe3a	0.27733022
241	0x3c3b9075	0.011448015
242	0x3d129db9	0.035794947
243	0xbeb2f7bf	-0.3495464
244	0xbefaa33c	-0.48952663
245	0x3e9e499f	0.30915543
246	0xbd39b709	-0.04534057
247	0xbe379706	-0.17928705
248	0xbe251579	-0.16121472
249	0x3e00b763	0.12569956
250	0x3d1dfbba	0.038570143
251	0xbe69a3e3	-0.22816424
252	0x3e609ca6	0.21934757
253	0xbd8f1423	-0.06986263
254	0xbe9c4da3	-0.30527982
255	0x3c17a951	0.009256677

fc2.bias f4 [4]
0	0x3f554ba6	0.83318555
1	0x3f03e71d	0.51524526
2	0x3f2c7f09	0.6738134
3	0x3f106485	0.5640338
