checkpoint5.pth (torch_old, 249409 bytes, 4 tensors)

fc1.weight f4 [256, 37]
0	0xbd49d18e	-0.049272113
1	0x3d9d5d64	0.076838285
2	0xbc29f992	-0.010374444
3	0xbcbf8314	-0.023377933
4	0x3e179c29	0.14805664
5	0x3e2e196b	0.17001884
6	0xbd5ff932	-0.05468101
7	0x3cfc881c	0.03082662
8	0x3cb38e98	0.02191858
9	0xbeab0aad	-0.33406582
10	0x3d4f2977	0.050576653
11	0xbd747128	-0.059678227
12	0xbdb5912a	-0.088655785
13	0xbe5798ee	-0.21054432
14	0xbcee6fd6	-0.029106062
15	0x3d6342a3	0.05548347
16	0x3d8c0dca	0.068385676
17	0x3dfcc973	0.12343111
18	0x3e000825	0.12503107
19	0x3d5aa958	0.053384155
20	0x3dbd0e48	0.092312396
21	0x3de96854	0.11396852
22	0x3ddac0e9	0.10681326
23	0x3e34798b	0.1762449
24	0xbdecdac7	-0.11565166
25	0x3d34b4ff	0.044117924
26	0x3e17ce3e	0.14824769
27	0xbca5ccbe	-0.02023923
28	0x3db0e8b3	0.08638134
29	0x3dff5b83	0.12468626
30	0xbc3cacae	-0.011515779
31	0x3e6e0779	0.23245038
32	0xbdb20602	-0.08692552
33	0xbd490dc0	-0.04908538
34	0xbd407fed	-0.046997
35	0xbe820dca	-0.25401145
36	0xbe032632	-0.12807539
37	0x3e519251	0.20465972
38	0x3e050024	0.12988335
39	0x3e11bc29	0.14231934
40	0x3e312f6e	0.17303249
41	0xbd16531e	-0.03670036
42	0x3dbd68ec	0.09248528
43	0xbe3c915f	-0.1841483
44	0x3e15eac1	0.14640333
45	0xbd7a46fe	-0.06110286
46	0xbef0d290	-0.47035646
47	0x3e23b00f	0.1598513
48	0xbd782e85	-0.06059124
49	0x3e059261	0.1304412
50	0x3e6d061b	0.2314686
51	0x3e76978c	0.24081248
52	0x3d4bffd2	0.049804516
53	0x3d75bb78	0.059993237
54	0x3e889c33	0.2668167
55	0x3dc01833	0.09379616
56	0x3e486531	0.19569851
57	0xbe0a05e0	-0.13478804
58	0xbb17c5ba	-0.0023158626
59	0x3d7b191a	0.061303236
60	0x3e239792	0.15975788
61	0x3e81861b	0.25297627
62	0xbdbde9cf	-0.09273111
63	0x3dfd11db	0.12356921
64	0x3e915155	0.28382364
65	0x3df062f4	0.11737624
66	0x3e03ef8d	0.1288435
67	0x3d5b48cb	0.053536218
68	0x3e57797d	0.21042438
69	0x3ea703f6	0.3262021
70	0xbd1e9397	-0.03871497
71	0x3dd0bcce	0.10192262
72	0x3d96838f	0.073493116
73	0x3dd908f1	0.105974086
74	0x3dfae30a	0.122503355
75	0x3e37da52	0.17954376
76	0x3e283d64	0.16429669
77	0x3d46693f	0.048440214
78	0x3da87942	0.08226253
79	0xbe323fb3	-0.17407112
80	0x3cac2bb0	0.021016926
81	0x3eb66582	0.3562432
82	0x3ec8915e	0.39173406
83	0x3f01b21d	0.50662404
84	0xbd4cd599	-0.05000839
85	0x3d6f5594	0.058431223
86	0x3d677215	0.05650528
87	0x3e027c43	0.12742715
88	0x3e32bece	0.17455599
89	0xbe290d18	-0.16508901
90	0x3e04a60e	0.1295397
91	0x3e2bd8c8	0.16781914
92	0x3ea96bac	0.3308996
93	0x3e44d4b6	0.19221768
94	0xbe4d684d	-0.20059319
95	0x3d43a6df	0.047766563
96	0x3e358e94	0.1773017
97	0x3e0253ec	0.12727326
98	0x3e04857e	0.12941548
99	0xbe0f31e8	-0.13983881
100	0x3e5570f3	0.20843868
101	0x3e36c6cf	0.17849277
102	0x3e8728fe	0.26398462
103	0x3e2a59c3	0.16635804
104	0xbe6afa8d	-0.2294714
105	0x3e01ea7a	0.12687102
106	0x3d7f128f	0.06227356
107	0x3d750087	0.059814956
108	0x3e92aba5	0.2864658
109	0x3bbfa887	0.0058489474
110	0xbd69b36b	-0.057055872
111	0x3e8568f8	0.26056647
112	0x3d39716b	0.04527418
113	0x3e5134e8	0.20430338
114	0x3e6ccaf3	0.23124294
115	0xbe5ea813	-0.21743803
116	0x3dc8f6e5	0.098127164
117	0x3e03ea79	0.12882413
118	0x3e125b2e	0.14292595
119	0x3e246813	0.16055326
120	0x3dd62bdc	0.10457584
121	0x3e1dfb50	0.154279
122	0x3c9489ac	0.018132053
123	0x3e53128b	0.20612542
124	0xbd036be5	-0.032085318
125	0x3ca30300	0.019898891
126	0x3e5ebe31	0.2175224
127	0x39394820	0.00017669844
128	0xbb8909f5	-0.004182095
129	0xbdbb913d	-0.091585614
130	0xbe3d9f41	-0.18517782
131	0x3dff3c14	0.12462631
132	0x3d493909	0.04912666
133	0x3d856a09	0.06514365
134	0x3ebc2290	0.3674512
135	0x3e43799e	0.19089362
136	0x3e7e0e45	0.24810131
137	0x3d9c7144	0.07638791
138	0x3da45263	0.080235265
139	0x3dddd466	0.108315274
140	0xbc7dd875	-0.015493502
141	0x3e13a5a4	0.14418656
142	0x3e97279c	0.29522407
143	0x3e00b870	0.12570357
144	0x3e059b92	0.13047627
145	0x3b6eae4a	0.0036419802
146	0x3e1c94ff	0.15291212
147	0xbd176d52	-0.03696949
148	0xbd5af992	-0.053460665
149	0xbdd594c9	-0.10428769
150	0xbe08987d	-0.1333942
151	0xbdb26044	-0.087097675
152	0x3d58cedf	0.052931663
153	0x3e95eaaa	0.29280597
154	0xbe967728	-0.29387784
155	0xbf100e4d	-0.5627182
156	0x3e3a4a24	0.18192345
157	0xbffdefb7	-1.983878
158	0xbda121f5	-0.07867805
159	0xbd50b1d0	-0.050950825
160	0x3ca80e7b	0.020514717
161	0x3d89cd55	0.06728617
162	0xbe02159e	-0.12703559
163	0xbe129087	-0.14312945
164	0xbcc33571	-0.023829194
165	0x3c359e63	0.011085126
166	0x3bec34b6	0.007208432
167	0x3dbb5716	0.0914747
168	0xbdf7d159	-0.12100477
169	0xbbf36c9d	-0.007428719
170	0x3e1a892d	0.15091391
171	0x3d4ffbbc	0.050777182
172	0x3e6df1fb	0.2323684
173	0x3de8cc65	0.1136711
174	0xbd4573a4	-0.048205987
175	0x3ca68bf7	0.020330412
176	0xbcf39dcb	-0.029738327
177	0xbe1be893	-0.15225439
178	0x3e09a916	0.13443407
179	0xbd6e28ad	-0.05814426
180	0x3a94c563	0.001135033
181	0x3d8a9a01	0.06767655
182	0x3ddd308e	0.10800277
183	0x3d61c932	0.055123515
184	0x3d368dfc	0.044569
185	0x3ddbe6eb	0.107374035
186	0xbd37d54f	-0.04488116
187	0xbceef942	-0.02917159
188	0xbe0e1161	-0.13873817
189	0x3d1b5caa	0.03793017
190	0x3dc20195	0.09472958
191	0x3c69d1dc	0.014271226
192	0x3db0643c	0.08612868
193	0xbda399ec	-0.07988343
194	0xbdf09710	-0.11747563
195	0xbd63818b	-0.055543464
196	0xbd18a890	-0.03727013
197	0x3b869e4b	0.0041082255
198	0xbda21b33	-0.07915344
199	0xbd0af04d	-0.033920575
200	0x3c0a8fea	0.008457163
201	0xb8329308	-4.257544e-05
202	0xbbc8aa7f	-0.0061238403
203	0xbe05dce5	-0.13072546
204	0xbe3439aa	-0.17600122
205	0x3df1efea	0.11813338
206	0xbc1c786b	-0.009550194
207	0x3e3578ce	0.17721865
208	0xbd52ff5b	-0.051513057
209	0xbcf9198a	-0.030407686
210	0x3d34af78	0.044112653
211	0xbda112a8	-0.078648865
212	0x3dae4791	0.08509744
213	0xbe354f3a	-0.17706004
214	0xbcbac6c7	-0.022799863
215	0x3cb6a442	0.022295121
216	0xbe1b0586	-0.15138826
217	0x3ce33e80	0.027739763
218	0x3ccc40e4	0.024933286
219	0xbe20d60c	-0.15706652
220	0xbd01b9cf	-0.03167134
221	0x3e3a0608	0.18166363
222	0xbd3b00af	-0.04565495
223	0xbcd07528	-0.02544649
224	0xbe157edb	-0.14599173
225	0x3e01b926	0.12668285
226	0xbe264d06	-0.1624032
227	0xbd2925e1	-0.04129589
228	0xbd677f2f	-0.056517776
229	0xbdb97ca7	-0.09056979
230	0xbdcdf874	-0.10057154
231	0x3e1fa6fe	0.15591046
232	0x3dbf182f	0.093307845
233	0xbaa2f9e0	-0.0012434088
234	0x3d98e8c1	0.07466269
235	0xbde025da	-0.109447196
236	0x3bbe696f	0.0058109085
237	0xbd5c54d5	-0.05379184
238	0xbde9e64f	-0.11420881
239	0xbb69f780	-0.00357005
240	0xbd8ac801	-0.06776429
241	0x3e00226c	0.12513131
242	0x3cdf2098	0.027237222
243	0xbdbb6151	-0.09149421
244	0x3c09c176	0.008407941
245	0xbded470b	-0.11585816
246	0x3de5d10a	0.11221512
247	0xbdc9167d	-0.098187424
248	0xbdb8308d	-0.08993635
249	0xbd814b62	-0.06313206
250	0xbe1440aa	-0.14477792
251	0xbcbf098e	-0.023319986
252	0x3dff5aa4	0.1246846
253	0x3c9e9cd2	0.019361887
254	0xbe9f8010	-0.3115239
255	0xbd778e3a	-0.060438372

fc1.bias f4 [256]
0	0x3e07f83e	0.1327829
1	0x3e29de5e	0.16588733
2	0x3d1d9b5d	0.038478244
3	0x3d933812	0.07188429
4	0x3d52d389	0.051471267
5	0x3d6711d6	0.056413494
6	0xbe1664a2	-0.14686826
7	0xbd0c3672	-0.03423161
8	0xbe408a0e	-0.18802664
9	0xbd7b0a96	-0.061289392
10	0x3e1958b0	0.14975238
11	0x3e463e79	0.19359769
12	0xbdb976da	-0.09055872
13	0xbd9a9356	-0.07547633
14	0xbd171d87	-0.036893394
15	0x3e1857f8	0.14877307
16	0x3e7d9671	0.2476442
17	0x3ce3c8ca	0.027805705
18	0xbd9cddf7	-0.07659524
19	0xbe08a6c7	-0.1334487
20	0x3df840f9	0.121217676
21	0x3e34e7a1	0.17666484
22	0x3e10c20e	0.14136526
23	0x3d0b52ab	0.034014385
24	0xbcbc8126	-0.023010802
25	0x3e091d21	0.13390018
26	0x3e1e371c	0.1545071
27	0x3e469066	0.19391021
28	0x3db6b71b	0.08921643
29	0x3e3d4c0b	0.1848604
30	0x3e2c1603	0.16805272
31	0x3cd952e7	0.026528789
32	0x3cf9c19e	0.030487832
33	0x3e4381a4	0.19092423
34	0x3ca06397	0.019578738
35	0x3e4fb9b5	0.20285685
36	0x3e0fb421	0.14033557
37	0x3d88825e	0.066654906
38	0xbd188f2e	-0.03724592
39	0x3e37ca8c	0.17948359
40	0x3cd04477	0.025423272
41	0x3d04264c	0.032263085
42	0x3e305fa1	0.1722398
43	0x3dda7c4c	0.10668239
44	0x3d3ec398	0.04657325
45	0x3ddeda71	0.10881508
46	0xbd8be1ac	-0.06830153
47	0xbd899246	-0.067173526
48	0xbb8b61dd	-0.0042536096
49	0x3db0cb41	0.086325176
50	0xbba365cd	-0.004986501
51	0x3dd0d33a	0.10196538
52	0x3d504908	0.050850898
53	0x3d774fe1	0.060378913
54	0x3e021cdf	0.12706326
55	0x3d429c98	0.04751262
56	0x3e3f7840	0.18698215
57	0x3d651ef1	0.05593771
58	0x3e836ea7	0.2567036
59	0x3e3d861a	0.18508187
60	0x3e5b7f71	0.21435334
61	0x3da9ff0e	0.08300601
62	0x3e3078ce	0.17233583
63	0x3d954392	0.07288279
64	0x3e190c94	0.14946204
65	0x3c895b7a	0.016767252
66	0xbdc9f399	-0.09860916
67	0xbcd51318	-0.026010081
68	0xbe0d6bd3	-0.13810663
69	0x3cb8f9ce	0.022580054
70	0xbde641f3	-0.112430476
71	0x3e42db61	0.19028999
72	0xbceee11f	-0.02916008
73	0x3e3ffdeb	0.18749206
74	0x3dbd259c	0.09235689
75	0xbd36eaca	-0.044657506
76	0x3e6bc87b	0.23025696
77	0x3dcd9ea4	0.10040024
78	0x3d0ce999	0.034402464
79	0x3e635b95	0.22202905
80	0xbe051e3a	-0.12999812
81	0x3dfea96f	0.12434661
82	0x3d537ffa	0.05163572
83	0x3d81624c	0.06317577
84	0x3defa869	0.117020436
85	0xbc9c905f	-0.01911181
86	0x3d275826	0.04085555
87	0x3e236865	0.15957792
88	0x3e723e79	0.23656644
89	0x3e2d4520	0.169209
90	0x3e777afa	0.24168006
91	0xbd6ddb45	-0.05807044
92	0xbcd38f86	-0.025825273
93	0x3e753f7f	0.23950003
94	0x3d2af4bb	0.0417373
95	0x3e24c520	0.16090822
96	0x3da7231d	0.08160994
97	0xbde12f25	-0.1099532
98	0x3dd25d4c	0.10271701
99	0x3e54aa1e	0.2076802
100	0x3d1b4c9f	0.03791487
101	0xbdb97c1c	-0.09056875
102	0xbdb4bcfe	-0.0882511
103	0x3939e821	0.0001772945
104	0x3c0cb574	0.008588184
105	0x3b4a317d	0.0030852251
106	0x3e42671b	0.18984644
107	0xbd96ae14	-0.073574215
108	0xbd524381	-0.051333908
109	0x3e1748d4	0.14773875
110	0x3e50aee3	0.20379214
111	0x3e21d05b	0.15802138
112	0x3e4d38f0	0.20041251
113	0x3d8dd033	0.069244765
114	0x3e5408c3	0.20706467
115	0xbdd737c1	-0.10508681
116	0xbdc18635	-0.09449426
117	0x3dddea2d	0.10835681
118	0xbdf7f4fc	-0.12107274
119	0x3cb047fe	0.021518704
120	0x3d27b937	0.04094812
121	0x3d9ee492	0.0775844
122	0x3d33b8df	0.04387748
123	0xbbc894fe	-0.006121277
124	0xbd88c885	-0.06678871
125	0xbc3556b3	-0.011068034
126	0x3dc41ac8	0.095754206
127	0x3dfb0b4e	0.122580156
128	0x3e493e20	0.19652605
129	0x3d80ac2b	0.062828384
130	0xbd227a6e	-0.03966754
131	0x3e6eb4a1	0.23311092
132	0x3d5fb7a0	0.054618478
133	0x3de0799c	0.10960695
134	0x3d763e70	0.06011814
135	0xbcfe11d3	-0.031014359
136	0xb8bd5f5b	-9.0299836e-05
137	0xbe225e2f	-0.1585624
138	0x3c16fdb1	0.009215758
139	0xbe1eb3c2	-0.1549826
140	0x3daec1f3	0.08533087
141	0x3dff5e55	0.12469164
142	0x3df50ddc	0.11965534
143	0xbd4249c4	-0.04743363
144	0x3d559099	0.052139852
145	0x3c8e9b3c	0.017408006
146	0x3b969f98	0.004596662
147	0x3e637b4b	0.22215001
148	0xbd8b2508	-0.067941725
149	0x3e35f567	0.17769395
150	0x3c1515a3	0.009099397
151	0xbd1fd5f7	-0.039022412
152	0xbe2728f0	-0.1632421
153	0xbd46ed99	-0.048566435
154	0x3cc07b2a	0.02349623
155	0x3e1be23d	0.15223022
156	0x3dbd3c88	0.09240061
157	0xbd8ede07	-0.06975942
158	0x3e1b3b22	0.15159276
159	0x3e1b97fc	0.15194696
160	0x3e0dd7ea	0.13851896
161	0x3e377d5f	0.17918919
162	0x3e2967e3	0.16543536
163	0x3c8156c6	0.015788447
164	0x3e4492d0	0.1919663
165	0xbd6dba5d	-0.058039058
166	0x3c0b82e1	0.008515091
167	0xbd02ef7b	-0.031966668
168	0x3ca2e488	0.019884363
169	0xbd746035	-0.059662063
170	0x3e18288e	0.1485922
171	0xbc83f133	-0.016106224
172	0x3e1e81e4	0.15479237
173	0x3e4b327d	0.19843479
174	0x3e17dd06	0.14830408
175	0x3d4da60e	0.05020719
176	0x3e4fa5ae	0.20278046
177	0xbd935b44	-0.07195142
178	0x3e326154	0.1741994
179	0xbdbc0d58	-0.091822326
180	0x3e49c1c9	0.1970283
181	0x3ddecd50	0.10879004
182	0xbd973fe1	-0.07385231
183	0xbcf5deb8	-0.030013427
184	0xbd4bdcc2	-0.049771078
185	0x3d89e7e4	0.06733683
186	0x3e7820b8	0.24231231
187	0x3e2eab0e	0.1705744
188	0x3e3637bd	0.177947
189	0x3e2b6c06	0.16740426
190	0xbd40cb25	-0.047068734
191	0x3e0a36c6	0.13497457
192	0x3dd68431	0.10474432
193	0x3e25c130	0.16186976
194	0x3e077191	0.13226916
195	0x3d8d3e5d	0.068966605
196	0x3dd2d265	0.10294036
197	0xbcfb5146	-0.030678403
198	0xbce404c3	-0.027834302
199	0x3c02dac6	0.00798673
200	0x3e29ab21	0.16569187
201	0x3dc8d1c4	0.098056346
202	0xbd1812ed	-0.037127424
203	0x3e0b72b9	0.13617982
204	0xbd0c475e	-0.03424775
205	0x3d167926	0.03673663
206	0x3e4c7512	0.19966534
207	0x3e219711	0.15780284
208	0x3e676ac9	0.22599329
209	0xbcb88a31	-0.022526832
210	0xbdbe7f5d	-0.09301636
211	0xbdadf610	-0.08494198
212	0x3d884ebf	0.066556446
213	0xbd864c8b	-0.06557568
214	0x3e21329f	0.15741967
215	0xbdd48aad	-0.10378013
216	0xbd480c6b	-0.048839968
217	0x3c983c6d	0.0185835
218	0x3e00a60d	0.12563343
219	0xbd8352aa	-0.06412251
220	0x3d300159	0.042970035
221	0xbd629d45	-0.055325765
222	0xbc3c0743	-0.011476341
223	0x3da5553d	0.080728985
224	0xbe00e01c	-0.12585491
225	0x3d8784fd	0.066171624
226	0xbba63acc	-0.005072927
227	0x3db5b40d	0.088722326
228	0x3e52fa0f	0.20603202
229	0xbe28185f	-0.16415547
230	0x3e0093bf	0.1255636
231	0x3dc35e18	0.09539431
232	0x3d82afc1	0.06381179
233	0xbc2e6251	-0.010643558
234	0x3e38404e	0.1799328
235	0xbd95ea82	-0.073201194
236	0xbca125a3	-0.019671267
237	0xbc2e8071	-0.01065074
238	0x3c393948	0.011305161
239	0xbdca888f	-0.09889328
240	0x3e1a44f9	0.15065373
241	0x3e549420	0.2075963
242	0xbd0ff381	-0.035144333
243	0x3d7a0f1f	0.061049577
244	0xbe1aa1e8	-0.15100825
245	0x3c8416ef	0.016124217
246	0x3d038c91	0.032116476
247	0x3e1e4021	0.1545415
248	0x3e210f58	0.1572851
249	0x3e1f39c0	0.15549374
250	0x3e144f61	0.14483406
251	0xbe067bd8	-0.1313318
252	0x3c304704	0.010759119
253	0x3e21ec9a	0.15812913
254	0x3d64618b	0.055757087
255	0x3cbdda76	0.02317546

fc2.weight f4 [204, 256]
0	0xbda5cfc4	-0.08096269
1	0xbcd3ce36	-0.025855165
2	0xbc9c4057	-0.019073648
3	0xbdedfb26	-0.116201684
4	0xbd16f3a0	-0.036853433
5	0xba1ccba1	-0.0005981271
6	0x3be3be9c	0.0069502126
7	0xba016121	-0.0004935433
8	0xbb9a4860	-0.004708335
9	0xbd2408c9	-0.04004744
10	0xbd231a13	-0.03981979
11	0xbe09a4f7	-0.13441835
12	0xbd609803	-0.05483247
13	0xbde93396	-0.11386792
14	0xbd95d826	-0.07316618
15	0xbd96cb75	-0.07363025
16	0xbdfacafd	-0.12245748
17	0xbb0926a4	-0.0020927573
18	0xbd52fb05	-0.051508922
19	0xbda03b5d	-0.07823823
20	0xbdb4d1d0	-0.08829081
21	0xbd235aca	-0.039881505
22	0xbdbd6758	-0.09248227
23	0xbde10c95	-0.10988728
24	0xbd1dd314	-0.038531378
25	0xbd9c6c3a	-0.0763783
26	0xbcef1a9d	-0.029187495
27	0xbe04f791	-0.12985064
28	0xbdae8cc7	-0.08522945
29	0xbdefba9f	-0.11705517
30	0xbd9d704e	-0.07687436
31	0xbcca1d73	-0.024672246
32	0x3c9aad54	0.018881477
33	0xbd775399	-0.06038246
34	0x3c85a750	0.016315132
35	0xbd1a0f4c	-0.037612244
36	0xbdad4d1a	-0.084619716
37	0xbdb91519	-0.09037227
38	0xbce604b8	-0.028078422
39	0xbd030ec0	-0.03199649
40	0xbdc56bb1	-0.09639681
41	0xbd780739	-0.060553763
42	0xbe03d4a1	-0.1287408
43	0xbddd6620	-0.108104944
44	0xbdac0bf9	-0.08400721
45	0xbd03c1b8	-0.032167166
46	0xbd316302	-0.04330731
47	0xbc562171	-0.0130694965
48	0xbddd4652	-0.10804428
49	0xbd4df8df	-0.05028617
50	0xbdefc7e2	-0.117080465
51	0xbd96fbe9	-0.07372267
52	0x3c129aae	0.008948011
53	0xbe348906	-0.17630395
54	0xbde1fc10	-0.11034405
55	0xbe0bbb3c	-0.13645643
56	0xbd957523	-0.07297733
57	0xbd958c7d	-0.07302187
58	0xbe088cd4	-0.13334972
59	0xbb5c54f4	-0.0033619972
60	0xbd79fdfd	-0.061033238
61	0xbda90143	-0.08252194
62	0xba8b6c78	-0.0010637185
63	0xbdfc708e	-0.123261556
64	0xbd5fb914	-0.054619864
65	0xbba61ec6	-0.0050695864
66	0xbcb8a94e	-0.022541668
67	0xbcb66740	-0.02226603
68	0xbd3c9da9	-0.046048794
69	0xbde85148	-0.11343628
70	0x3c598137	0.013275436
71	0xbdef1863	-0.11674573
72	0xbdbf7bf3	-0.09349813
73	0x3c9967f4	0.018726327
74	0xbdad5454	-0.0846335
75	0xbda2e3ea	-0.079536274
76	0xbdd3a87e	-0.10334872
77	0xbcf68604	-0.0300932
78	0xbd9c80a3	-0.07641723
79	0xbce8dd3a	-0.028425802
80	0x3c030442	0.007996621
81	0xbdaab1f9	-0.08334727
82	0xbc30f24b	-0.010799955
83	0xbda12dfd	-0.078701
84	0xbdf2d3ee	-0.11856829
85	0xbd08ad4a	-0.033368386
86	0xbda6549c	-0.08121607
87	0xbcc28bb6	-0.02374826
88	0xbdcf310b	-0.10116776
89	0xbde32583	-0.11091139
90	0xbe0a7b29	-0.13523544
91	0xbcdf4d0f	-0.027258424
92	0xbddfcb16	-0.109274074
93	0xbbe8d350	-0.0071052685
94	0xbd8651da	-0.06558581
95	0xbe36834a	-0.1782352
96	0xbab9c2f2	-0.0014172478
97	0xbdb54d83	-0.08852675
98	0xbd2dd3f4	-0.042438462
99	0xbd41b184	-0.047288433
100	0xbccefcb2	-0.025266979
101	0xbdc75fb0	-0.09735048
102	0xbdabc373	-0.08386888
103	0xbd88fd54	-0.066889435
104	0xbd797186	-0.06089928
105	0xbd96f03f	-0.07370042
106	0xbdbfcfa7	-0.093657784
107	0xbcb198b1	-0.021679254
108	0xbd56f2e4	-0.052477732
109	0xbd9dd386	-0.077063605
110	0xbd28d32e	-0.04121702
111	0xbbd790c1	-0.0065785353
112	0xbc94d971	-0.01817009
113	0xbce8c0a8	-0.028412178
114	0xbdb53727	-0.0884841
115	0xbd99f8e1	-0.07518173
116	0xbccf2896	-0.025287908
117	0xbd83ca66	-0.06435089
118	0xbd1a319b	-0.037644964
119	0xbb32bf52	-0.002727468
120	0xbdc0d04c	-0.094147295
121	0xbdf79e9e	-0.12090801
122	0xbdb69756	-0.08915584
123	0xbdcf7577	-0.101298265
124	0xbd2a22e8	-0.041537195
125	0xbc7fa690	-0.015603676
126	0xbd8a3e45	-0.06750158
127	0xbd78c44d	-0.060734082
128	0xbd9baf9e	-0.07601856
129	0xbda25838	-0.07926983
130	0xbdae823f	-0.08520936
131	0xbd4385af	-0.047734912
132	0xbd918420	-0.07105279
133	0xbda7d85a	-0.08195563
134	0xbd62302e	-0.05522173
135	0xbd82ef8b	-0.063933454
136	0xbd26cd71	-0.040723268
137	0xbd182f4e	-0.03715449
138	0xbcaa7cd0	-0.020811468
139	0xbcfa1a52	-0.030530129
140	0xbddcac33	-0.10775032
141	0xbe2a3809	-0.16622938
142	0xba958656	-0.0011407833
143	0xbd88a7ec	-0.066726536
144	0xbd680ccf	-0.05665284
145	0x3b64ace8	0.00348931
146	0x3b054da2	0.0020340462
147	0xbd52c31e	-0.05145561
148	0xbdd1cafe	-0.10243796
149	0xbb802fd2	-0.0039119506
150	0xbe03dc34	-0.1287697
151	0xbdc0abec	-0.094077915
152	0xbcf62289	-0.030045765
153	0xbdaa7b59	-0.08324308
154	0xbe47e209	-0.1951982
155	0xbaf9c9e7	-0.0019057364
156	0xbd459047	-0.048233297
157	0xbdb82a01	-0.089923866
158	0xbcee545b	-0.029092958
159	0x37a4cdf3	1.9646226e-05
160	0xbd91a80a	-0.07112129
161	0xbc82ea38	-0.015980825
162	0xbca10721	-0.01965672
163	0xbd152cc8	-0.03641966
164	0xbdc0ee1f	-0.09420418
165	0xbd9e762b	-0.077373825
166	0xbcf2066b	-0.029544076
167	0xbd2b2a31	-0.041788284
168	0xbdf72828	-0.12068206
169	0xbde01be9	-0.109428234
170	0xbdd5b7c8	-0.10435444
171	0xbd6d052e	-0.057866268
172	0xbdc792e9	-0.09744818
173	0xbde1853d	-0.11011741
174	0xbd899a1b	-0.067188464
175	0xbd92c3b4	-0.07166234
176	0xbd9f6b43	-0.077841304
177	0xbc2ef19e	-0.010677723
178	0xbb910226	-0.004425305
179	0xbc9258a5	-0.017864535
180	0x3b48f532	0.0030663726
181	0xbd42318d	-0.047410537
182	0xbdb84e2d	-0.08999286
183	0xbd45c8f8	-0.04828736
184	0xbcbe8c84	-0.023260362
185	0xbd69031f	-0.056887742
186	0xbc0b6602	-0.008508207
187	0xbcf9618e	-0.030442026
188	0xbdd86594	-0.105662495
189	0xbd0897ab	-0.033347767
190	0xbd30bf59	-0.043151233
191	0xbcdc14b7	-0.026865346
192	0xbdce84db	-0.10083934
193	0xbb68bc5a	-0.0035512657
194	0xbd812dcc	-0.06307563
195	0xbc499800	-0.012304306
196	0xbda27fa5	-0.079345025
197	0xbc55738f	-0.01302804
198	0xbe049f69	-0.12951435
199	0xbe138c39	-0.1440896
200	0xbdf75dd4	-0.12078443
201	0xbd1f5c24	-0.03890623
202	0xbd8d958e	-0.06913291
203	0xbd0f996d	-0.035058428
204	0xbdb4001f	-0.087890856
205	0xbd8f2088	-0.06988627
206	0xbd8762ba	-0.066106275
207	0xbd5fa817	-0.054603662
208	0xbb9a7067	-0.0047131064
209	0xbdda2415	-0.10651413
210	0xbc61dab6	-0.013785055
211	0xbdbadae3	-0.091237806
212	0xbd07d07d	-0.033157814
213	0xbd668b32	-0.05628509
214	0xbcfb8a61	-0.030705633
215	0xbdd70da3	-0.10500648
216	0x3b037e0f	0.002006415
217	0xbbbb56b5	-0.0057171234
218	0xbdb46def	-0.08810031
219	0xbda75360	-0.081701994
220	0xbd1db63e	-0.038503878
221	0xbdb54fa3	-0.0885308
222	0x3b947843	0.004530938
223	0xbdc2eb29	-0.095175095
224	0xbdd895be	-0.10575436
225	0xbd65883e	-0.056038134
226	0xbda1a7a6	-0.078933045
227	0xbda637f0	-0.08116138
228	0xbd422053	-0.047394108
229	0xbc638110	-0.013885751
230	0xbc7f9c98	-0.0156013
231	0x3c58b302	0.013226273
232	0xbcecfa54	-0.02892796
233	0xbda3f92f	-0.080065124
234	0xbd88448e	-0.06653701
235	0xbbdd5cc9	-0.0067554456
236	0xbdcdeb38	-0.1005463
237	0xbbe318de	-0.0069304546
238	0xbc8c6fbb	-0.017143121
239	0xbcc7fdb6	-0.024412971
240	0xbd135d0f	-0.03597742
241	0xbde93728	-0.11387473
242	0xbd19bafd	-0.03753184
243	0xbd8e1758	-0.06938046
244	0xbd473d55	-0.048642475
245	0xbd850900	-0.06495857
246	0x3ab8be65	0.0014094828
247	0xbd69abef	-0.057048734
248	0xbd4a79a0	-0.049432397
249	0xbddf0c84	-0.10891059
250	0xbc793a56	-0.015211662
251	0xbdc9e734	-0.098585516
252	0xbcab7f01	-0.020934584
253	0xbcf3638a	-0.02971055
254	0xbd058c3a	-0.032604434
255	0xbdf7925a	-0.12088461

fc2.bias f4 [204]
0	0x3bad5ac9	0.0052903634
1	0xbd0b1479	-0.03395507
2	0x3a61f9cd	0.0008620292
3	0xbaeeb499	-0.0018211781
4	0xbdf5d0cc	-0.120027155
5	0xbccf28b4	-0.025287963
6	0xbd25c85c	-0.04047428
7	0x3ad35b4a	0.0016125229
8	0xbcfb727e	-0.030694243
9	0xbdca6e28	-0.09884292
10	0xbdcd39e6	-0.10020809
11	0xbdd8b576	-0.10581486
12	0xbdc4feee	-0.096189365
13	0xbd851c67	-0.06499558
14	0xbdec8af8	-0.11549944
15	0xbe1b53d1	-0.15168692
16	0xbd7d5c2d	-0.061855484
17	0xbb330cf1	-0.0027320946
18	0x3c60f2cb	0.013729761
19	0xbd8270c4	-0.063691646
20	0xbd86a120	-0.06573701
21	0xbada7866	-0.0016667962
22	0xbcc3c036	-0.023895364
23	0x3c896cad	0.016775453
24	0x3d9f0cd2	0.07766117
25	0x3ccd8857	0.025089426
26	0x3d52afd5	0.051437218
27	0x3a6e029b	0.0009079368
28	0x3d81b5e9	0.06333525
29	0xbde1766c	-0.11008915
30	0xbc74c308	-0.014939077
31	0xbd9a2412	-0.07526411
32	0xbcf6bf34	-0.03012047
33	0xbcc640e6	-0.024200868
34	0xbd617b73	-0.05504937
35	0xbd311bd5	-0.043239433
36	0xba32d0c8	-0.0006821272
37	0xbca7a818	-0.020465896
38	0xbd2d853c	-0.04236339
39	0x3b1cf42a	0.0023949244
40	0xbda625f4	-0.08112708
41	0xbdbd44c9	-0.09241635
42	0xbdca67a9	-0.09883053
43	0xbd492b97	-0.049113836
44	0xbd6ce746	-0.057837747
45	0xbdd1dd72	-0.102473155
46	0xbdacf065	-0.08444289
47	0x3af3f14c	0.0018611341
48	0xbc9d8e3f	-0.019232867
49	0xbdd4d096	-0.10391347
50	0xbb1bdfd0	-0.0023784526
51	0xbdd8cb1e	-0.105856165
52	0xbdddca06	-0.108295485
53	0xbd1b80ec	-0.037964746
54	0xbbc24e54	-0.0059297476
55	0xbdaea66a	-0.08527835
56	0xbc0f8dae	-0.008761806
57	0xbd889674	-0.06669322
58	0xbc9c1090	-0.019050866
59	0xbd517122	-0.051133282
60	0xbd8d25f4	-0.068920046
61	0xbc52cc83	-0.012866142
62	0xbd79e0b5	-0.061005313
63	0xba47e935	-0.0007625998
64	0xbde2a69a	-0.11066933
65	0xbcdeb8f3	-0.0271878
66	0xbe0bd6c1	-0.13656141
67	0xbd8d7fd8	-0.0690915
68	0xbc3677fe	-0.011137007
69	0xbd91d403	-0.07120516
70	0xbd462e70	-0.04838413
71	0x3c9d10f0	0.019173115
72	0xbd4475af	-0.047963794
73	0x3d70a5ba	0.0587518
74	0xbd4388f9	-0.04773805
75	0x3da0888a	0.07838543
76	0x3d4d04c2	0.050053366
77	0x3dead4c7	0.11466365
78	0x3d214dc6	0.03938081
79	0xbc99408d	-0.018707538
80	0xbdb38da2	-0.08767249
81	0xbd9b665f	-0.07587885
82	0xbdb226b5	-0.08698789
83	0x3bbaf1c4	0.0057050902
84	0xbcff31ea	-0.03115173
85	0xbdafcffd	-0.085845925
86	0xbde37912	-0.11107077
87	0xbc9b98af	-0.018993704
88	0xbd89418e	-0.06701957
89	0xbdb6beeb	-0.089231335
90	0xbd2bdf8c	-0.041961238
91	0xbd877e80	-0.06615925
92	0x3b917fec	0.0044402983
93	0xbcf8c475	-0.030367116
94	0xbd9d663f	-0.076855175
95	0xbd843cac	-0.06456885
96	0xbc4c6558	-0.012475334
97	0xbcd6c8ca	-0.02621879
98	0xbc8cdcda	-0.017195154
99	0xbc951737	-0.018199546
100	0x3be93197	0.0071165073
101	0xbd26d121	-0.040726785
102	0xbda73914	-0.08165184
103	0xbd7b432c	-0.061343357
104	0xbc3eac79	-0.0116378
105	0xbd77dd6b	-0.060513895
106	0xbd37405c	-0.044739112
107	0xbdea4ef5	-0.11440841
108	0xbbe58d09	-0.007005338
109	0xbd9a3192	-0.07528986
110	0xbde32eae	-0.11092888
111	0xbd1df23a	-0.038561083
112	0xbd18b8fb	-0.037285786
113	0xbda38635	-0.07984582
114	0xbd77120b	-0.06031994
115	0xbd0a911e	-0.0338298
116	0xbc7e72ea	-0.015530327
117	0xbddb26f7	-0.10700791
118	0xbd4e6fb2	-0.05039949
119	0xbdde39f4	-0.108508974
120	0xbd821a1b	-0.063526355
121	0xbc19f60a	-0.009397039
122	0xbdae77f6	-0.085189745
123	0xbcdc9fc0	-0.026931643
124	0xba19c29d	-0.00058654865
125	0xbd3d90ad	-0.04628055
126	0x3db85db1	0.09002245
127	0x3cc662b6	0.02421699
128	0x3db6d3d9	0.089271255
129	0xbb330b2e	-0.0027319896
130	0x3d671e78	0.05642554
131	0xbd833f95	-0.06408612
132	0xbd998b42	-0.074972644
133	0xbdb61011	-0.08889783
134	0xbd56b9f7	-0.052423444
135	0xbd8c5d71	-0.0685376
136	0xbcf265e8	-0.029589608
137	0xbdf8d273	-0.12149515
138	0xbdb08a62	-0.086201444
139	0xbdab1e89	-0.083554335
140	0xbd96c6a2	-0.07362105
141	0xbdedf98c	-0.11619863
142	0xbd11221c	-0.03543292
143	0xbda66a07	-0.08125692
144	0xbda45261	-0.08023525
145	0xbd4c5fb6	-0.049895965
146	0xbc4f57bc	-0.012655195
147	0xbda82ef5	-0.08212081
148	0xbd6e3ca5	-0.058163304
149	0xbdcea60c	-0.10090265
150	0xbd5491aa	-0.05189673
151	0xbd9d01e9	-0.0766638
152	0xbb2e9c57	-0.0026643479
153	0x3a7bc5eb	0.0009604382
154	0xbd5ff0a0	-0.054672837
155	0xbd32f9e0	-0.04369533
156	0xbda72d92	-0.08162989
157	0xbca1c60e	-0.01974776
158	0xbd2aa967	-0.04166546
159	0xbce707e2	-0.028202001
160	0xbd15c826	-0.03656783
161	0xbcb85c75	-0.022505024
162	0xbcba0667	-0.022708131
163	0xbd22cb1e	-0.03974449
164	0xbdf4858d	-0.11939535
165	0xbd38357c	-0.04497288
166	0xbc0653bb	-0.008198674
167	0xbdd3e934	-0.10347214
168	0xbdee5720	-0.116377115
169	0xbd1459f0	-0.036218584
170	0xbd9680e1	-0.073488005
171	0xbdcf9543	-0.10135891
172	0xbd851ccb	-0.064996324
173	0xbc8f6019	-0.017501878
174	0xbddfb9bc	-0.10924098
175	0xbd73ff26	-0.0595695
176	0x3c7b19b6	0.015325954
177	0x3d2debe4	0.04246129
178	0x3da2e302	0.079534546
179	0x3d974c6b	0.073876224
180	0xbcd7e3be	-0.026353713
181	0x3d6f0a96	0.058359705
182	0xbda85bd7	-0.08220642
183	0xbcde44aa	-0.027132351
184	0xbc6f65a8	-0.014611639
185	0xbdcc7ad3	-0.09984364
186	0xbd09d7d2	-0.033653088
187	0xbd01f016	-0.031723104
188	0xbce90bf5	-0.028448084
189	0xbdaa063d	-0.08301971
190	0xbde6a5cb	-0.11262091
191	0xbd66cd61	-0.05634821
192	0xbd4a2958	-0.049355835
193	0xbc37456b	-0.011185984
194	0xbdfa8cd3	-0.12233891
195	0xbda0a2f3	-0.0784358
196	0xbd9e7333	-0.07736816
197	0xbd8f7685	-0.07005028
198	0xbd9b75ce	-0.07590829
199	0xbdc035d2	-0.093852654
200	0xbd430fbc	-0.047622427
201	0xbd8d98b8	-0.069138944
202	0xbdd048c1	-0.10170127
203	0xbd8c194f	-0.06840765
