checkpoints/checkpoint.pth (torch_old, 43809 bytes, 4 tensors)

fc1.weight f4 [256, 37]
000000 28 37 88 3d 2d d1 9e 3d f0 bc bb 3d a1 ae e9 bd
       0.06651145 0.07754741 0.09166896 -0.11410261
000010 ed 36 5d bc 70 0c 3d 3e 2b 47 98 be 1b 16 f4 3d
       -0.013501865 0.18461776 -0.29741797 0.11918279
000020 02 2d f7 3d 42 a0 a6 be 86 26 20 bd 4d eb 05 bc
       0.120691314 -0.32544142 -0.03909924 -0.008173776
000030 bd 89 54 bd b3 9e 17 be bb 29 86 be ef 46 15 bd
       -0.05188917 -0.14806633 -0.26203713 -0.0364446
000040 a4 3d bc 3e 7c 93 84 3d 98 2d ab bd 51 42 11 be
       0.36765778 0.06473443 -0.08358306 -0.14185454
000050 da 12 46 3e 24 71 0f 3e fa 27 f1 bc 5a ae d6 bd
       0.19343129 0.14008003 -0.029438008 -0.10482474
000060 e9 8c a1 be 2c 60 45 3d c0 44 54 bd ec 66 93 3e
       -0.31552818 0.04818742 -0.051823378 0.2878946
000070 2e 79 21 be e6 93 d0 be 6f f0 2e bd 93 a3 6f 3d
       -0.15768883 -0.40737838 -0.042709764 0.058505606
000080 2a 36 6c 3e 8c 5e ca be 1e 18 e9 be 95 20 ed 3d
       0.23067537 -0.3952526 -0.45526212 0.1157848
000090 e9 4b a3 bc df 3b 03 3d 57 5b 15 be f4 dd 62 bd
       -0.019933658 0.03203952 -0.14585625 -0.055387452
0000a0 e9 07 23 be 9d 7b b0 bd e0 8d e0 3d 1a 2d 03 be
       -0.15920986 -0.08617327 0.109645605 -0.12810174
0000b0 16 68 ed be dd 66 3b 3e 67 cc 33 bf 7d 3c 87 bd
       -0.46368474 0.18300958 -0.7023377 -0.06603334
0000c0 40 53 fb 39 31 59 97 3c 49 81 05 be ae 0b 46 be
       0.00047936477 0.018475147 -0.130376 -0.19340393
0000d0 56 50 c3 bc 1a 7c 15 3e 49 9f ab 3a fd 65 b9 bd
       -0.023842018 0.14598122 0.0013093735 -0.09052656
0000e0 2e 5b 16 be e8 bf b6 3d 14 8a e2 bd 3f 05 b7 bb
       -0.1468322 0.08923322 -0.110614926 -0.005585342
0000f0 63 65 12 be 6b 56 1f bb 0e ba 07 3d da ce a8 3c
       -0.14296488 -0.0024312984 0.03313642 0.020606447
000100 d2 64 81 be 07 ae d0 be b1 ad 83 be 58 9b f1 be
       -0.25272232 -0.40757772 -0.25718454 -0.4718883
000110 ef a9 a3 be 88 e2 c3 3e a5 fb ee bd 73 e2 d1 be
       -0.31965587 0.38258767 -0.11669091 -0.4099308
000120 5a 4f 45 bd 21 39 cd 3c 32 55 f3 3d 76 13 1a 3d
       -0.04817138 0.025051655 0.11881484 0.037616216
000130 c1 60 80 3e 57 d3 eb 3d 25 95 86 3e 9e ed 3a 3e
       0.25073817 0.11514919 0.26285663 0.18254706
000140 8f f1 c4 3d b8 6d a5 3d ff 8a 3a 3d b8 66 72 bd
       0.09616386 0.08077568 0.045542713 -0.05917999
000150 9b a5 91 3d cd af f7 3d 99 46 e7 3d 63 7b 47 3e
       0.07111665 0.12094078 0.11292762 0.19480662
000160 23 32 d2 3d 3d 36 3b 3e 81 b8 08 3e 8b cc f9 3d
       0.10263469 0.18282409 0.13351633 0.121972166
000170 a0 45 4d 3e 62 54 30 3d 66 92 2d 3e ec b3 f2 3d
       0.20046091 0.043049224 0.16950378 0.118507236
000180 6f ac a7 3d 0a ff 8a 3e 58 a3 1c 3e 29 c1 3a 3e
       0.08187186 0.27147704 0.15296686 0.18237747
000190 c1 d0 81 3e 6a 38 b8 3d 9a d1 79 3e c2 6b 91 bd
       0.2535458 0.08995135 0.24396363 -0.07100631
0001a0 26 20 45 3e 96 33 62 3e 04 0c 97 3e 79 05 8a 3d
       0.19250545 0.22089991 0.29501355 0.06739325
0001b0 94 18 1d 3e c5 21 11 3e 49 61 1a 3d 72 d3 22 bd
       0.15341407 0.14173038 0.037690435 -0.03975243
0001c0 68 c7 3a 3d 7d 33 75 3e dc 7a 0c 3d 8d d3 6d bd
       0.045600325 0.23945422 0.034296855 -0.05806308
0001d0 60 82 f6 3c d0 4b 09 3e dc 43 3f be f8 9c 49 3e
       0.030091465 0.13407826 -0.1867823 0.19688785
0001e0 d5 3a 91 be ce ac 94 bd cc c4 4b bd 18 28 ee bd
       -0.28365198 -0.072595224 -0.049748227 -0.11628741
0001f0 4f c6 fe 3d 71 bf 35 be 34 c6 c8 3b d1 b1 05 be
       0.12440168 -0.1774881 0.0061271433 -0.13056113
000200 df 5f af bc 08 83 a2 bd 04 a7 98 be ae 49 ba 3d
       -0.02140802 -0.079351485 -0.29814923 0.090960845
000210 a9 d7 7f be 54 c2 ad bd 56 89 01 3d 86 ab d7 be
       -0.24984612 -0.08484331 0.031625114 -0.4212305
000220 15 d6 a6 3d f1 9b f5 bd d8 97 7a bd fb d2 86 3c
       0.08146302 -0.11992634 -0.061179966 0.016458025
000230 26 85 98 be 73 5d 39 3c 4f 78 df 3b fe d7 9a 3d
       -0.29789084 0.011313784 0.006819762 0.075607285
000240 eb e9 d7 3d c9 1c 2a be 1d a4 34 3e 08 00 9b bc
       0.10542663 -0.16612543 0.17640729 -0.018920913
000250 01 17 63 3d 6e 64 83 3d f9 18 1b 3e a7 83 52 3e
       0.05544186 0.0641564 0.15146245 0.20558034
000260 9a a3 41 3d c6 11 2a 3e 23 85 13 3e 85 b3 f0 3d
       0.047275163 0.16608343 0.14406256 0.11752991
000270 df d6 85 3e 87 e7 bf 3c 68 64 60 3e e7 6a 0f 3e
       0.26140496 0.02342583 0.21913302 0.14005624
000280 47 58 96 3e d2 db 8e 3e b6 ef 20 3e c8 76 ef 3d
       0.29364225 0.27902085 0.15716442 0.116925776
000290 ac c3 25 3e e7 0e 89 3e f2 d8 51 3e f4 2b 27 bd
       0.16187924 0.26769182 0.20492914 -0.0408134
0002a0 a5 5f 8a 3e 80 57 a9 3e 25 62 6b 3e 81 72 63 3d
       0.27026096 0.3307457 0.22986658 0.05552912
0002b0 25 9b 78 3d 8f a8 81 3e e9 1e 49 3e 79 4b 29 3e
       0.060694832 0.25323913 0.19640698 0.16532697
0002c0 8a 3f 39 3e 88 2b 21 3e 73 75 48 3e c0 4f 2e 3e
       0.18090644 0.15739262 0.19576053 0.1702261
0002d0 90 b9 19 3e cc e3 4a 3e c8 52 e7 3d 4e aa 37 bd
       0.15012193 0.1981346 0.11295086 -0.04484015
0002e0 42 a1 55 bc ef 99 ec 3c 23 d3 1f 3d ed 71 4b bc
       -0.013038935 0.028881995 0.039019715 -0.012417299
0002f0 04 da 08 be 97 71 fd bc 74 f4 e3 be a7 9e 2a 3e
       -0.13364416 -0.030937953 -0.4452244 0.16662084
000300 65 d9 88 3e a6 20 ac 3e 45 9a dc 3d 4a d0 39 be
       0.2672836 0.3361866 0.10771612 -0.18145862
000310 37 5f b9 3b 37 88 55 bd 23 5f 4c be 1e a5 42 bd
       0.0056571024 -0.052131858 -0.19958167 -0.04752075
000320 7b 34 13 3c ba 26 62 bd 1d 28 73 3d 21 e9 14 3e
       0.00898468 -0.055212714 0.059364427 0.14542057
000330 bd 46 4a 3e c1 76 83 bd 0f c7 4b 3d ee 1b db 3b
       0.19753547 -0.06419135 0.049750384 0.006686679
000340 ab 35 2e 3e 14 6f d1 3d cf 96 d3 bc b8 06 80 3d
       0.1701266 0.102262646 -0.025828747 0.062512815
000350 c7 92 ca bd b5 51 f4 bc 5c 1c 3a be 6e 03 de 3e
       -0.09891277 -0.029824117 -0.1817488 0.43361992
000360 e1 f3 ca be c3 3f b4 bd 8d aa c6 be cc ec be bf
       -0.3963919 -0.08801224 -0.38801995 -1.4916015
000370 9d 56 59 bd 48 54 80 bb 32 aa cb bd 46 14 07 3e
       -0.053061116 -0.003916297 -0.099445716 0.13191327
000380 66 8a 08 bd e7 5d 8b bb 30 74 47 be 6e f9 48 be
       -0.033335112 -0.0042531374 -0.19477916 -0.196264
000390 d5 25 c5 3d 58 cb 59 bd dc 8b df 3d bd 75 a3 be
       0.096263565 -0.05317244 0.10915348 -0.31925765
0003a0 2c fa 25 3e cc 7d a1 3d d1 3b 08 be 7b 34 f2 3c
       0.16208714 0.07885322 -0.13304068 0.02956604
0003b0 fc 86 94 be f0 c3 2c 3e 8b 70 2f 3d fe e7 a8 bd
       -0.29009235 0.16871619 0.04283194 -0.08247374
0003c0 2d 08 49 3e 54 d7 dd 3d 35 53 27 be 1b 88 d6 bc
       0.19632025 0.10832086 -0.16340335 -0.026187947
0003d0 03 c1 13 be ec b0 b7 3d 96 f8 b8 be eb 28 2d be
       -0.14429097 0.08969292 -0.36127156 -0.1691014
0003e0 9d 63 49 3d a4 ce d5 3d d5 09 48 3c ea fe 29 be
       0.049167264 0.10439804 0.012209375 -0.16601148
0003f0 6d e2 5c bc 77 10 08 3e 08 1a e4 3b d4 ad 0d be
       -0.0134817185 0.13287531 0.006961111 -0.13835841

fc1.bias f4 [256]
000000 1d 14 f5 bc 17 65 68 bd 10 93 41 3e 8d 03 4a 3d
       -0.029916817 -0.05673703 0.18903756 0.049319793
000010 42 0b 1c 3e f2 ea 80 be 14 66 3b be a8 36 35 3e
       0.1523867 -0.2517925 -0.18300658 0.17696631
000020 69 7d ec 3d 1d f7 3b 3d e8 e5 9e be 62 02 31 be
       0.115473576 0.045889962 -0.3103478 -0.17286065
000030 46 e1 7b be 56 4e 47 bc 2e b5 a3 3e 2a 59 eb bd
       -0.24597654 -0.012164673 0.31974167 -0.11491616
000040 23 01 1f 3e ea f7 08 3e 1e 75 30 3d 92 15 7d bc
       0.15527777 0.13375822 0.04308044 -0.015447037
000050 51 e0 25 3e c3 05 ef 3c a1 5d 96 bd a9 b8 ed bd
       0.16198851 0.029177552 -0.07342077 -0.11607487
000060 70 ff 22 3e 4e 57 e7 bd fd 2f 70 be 0c 0b 24 3e
       0.15917754 -0.11295949 -0.23455806 0.16019839
000070 81 26 11 be e7 10 c7 be b6 8f c0 bd 40 6b 2b be
       -0.14174844 -0.38880083 -0.09402411 -0.16740131
000080 47 32 85 be ed e8 f2 3d bc e9 a1 be e9 50 d4 bd
       -0.2601492 0.11860833 -0.31623638 -0.10366995
000090 c5 fb 1f be 5d bb fb 3d 49 58 c9 bc e3 fc 9d be
       -0.15623386 0.12291596 -0.02457823 -0.30857
0000a0 18 fa 77 be 28 fe 25 3e 7a 4b 48 be 06 ad 97 be
       -0.24216497 0.16210234 -0.19560042 -0.29624194
0000b0 a6 34 40 3c a1 ca 88 3d dc 59 ee bd 43 96 86 be
       0.011731302 0.066792734 -0.11638233 -0.26286516
0000c0 b6 a5 5b be c7 3a 48 be 1e 89 25 3d a7 ea 6b 3e
       -0.21449932 -0.19553672 0.04041397 0.23038732
0000d0 d8 2e 34 bd 0e 12 4c bc fb c3 1b be 59 45 06 bd
       -0.043989986 -0.012455476 -0.1521148 -0.03278098
0000e0 cb 79 af be 1d 5e 58 bd f3 41 2f be 93 fb e1 3d
       -0.34272608 -0.05282413 -0.17115001 0.11034312
0000f0 05 67 af 3d f2 d0 80 be 0d d7 98 3d 0d 3e 4e 3d
       0.08564571 -0.25159413 0.07462893 0.050352145
000100 57 a1 dc bd 19 e4 bd 3d 73 8e 9b bd 4a 8e fc 3d
       -0.10772961 0.09272022 -0.075955294 0.12331827
000110 4e dc 51 3e 77 75 38 be 57 39 2c be 92 f3 96 bd
       0.20494196 -0.1801356 -0.16818748 -0.07370676
000120 f1 b6 a3 bd c8 ab 04 be 62 7b bb bd 8f c5 b4 3d
       -0.07993878 -0.12956154 -0.09154393 0.08826744
000130 01 89 47 3e 06 6c 76 be 38 9b 36 be cd eb 67 bd
       0.19485857 -0.24064645 -0.17832649 -0.05662136
000140 fb d3 0b 3d 05 da 73 be 07 cb d0 bd 77 d2 63 be
       0.034137707 -0.23813637 -0.101949744 -0.22248255
000150 28 39 1d be 4a 97 da b9 9c 51 78 3d b4 72 a7 3d
       -0.15353835 -0.0004169292 0.060624704 0.08176175
000160 72 2d 24 3d 66 0b 9e bd 8b 80 7b bd fd 14 03 3d
       0.040082403 -0.07717018 -0.061401885 0.032002438
000170 77 5c 66 be de 95 8c bd 1e cf c2 bd 71 0b 2a be
       -0.2249621 -0.068645224 -0.09512161 -0.16605927
000180 be 23 d2 bd 51 92 c8 3d 48 d4 05 3e f5 4f a0 3c
       -0.102607235 0.09793533 0.1306926 0.019569376
000190 da ec 55 3e de 57 28 bc 14 8b 59 3d 32 d3 b2 3d
       0.20891133 -0.010274855 0.05311115 0.087316886
0001a0 03 83 b5 3d 88 6e 69 be 22 d8 37 be 4c 79 77 3e
       0.08862879 -0.2279607 -0.17953542 0.24167365
0001b0 65 1e 9f bd 5d a6 14 3e 4b ea 93 bd 80 d1 1e 3e
       -0.07769469 0.14516588 -0.07222422 0.15509605
0001c0 d0 9e b3 be 69 ac 8d 3d bc 42 22 be 2f e1 80 3e
       -0.35082102 0.0691765 -0.1584577 0.251718
0001d0 4e 09 d6 3d 3c 94 8b be aa 20 54 3d 22 cb da 3d
       0.104509935 -0.2726153 0.051788963 0.10683276
0001e0 f1 bb 45 be a3 1b 59 3e 68 61 1c 3e 2a 70 91 be
       -0.19309975 0.21201949 0.15271533 -0.28405887
0001f0 4e 26 59 be 5b 00 9b 3d 9c 67 2f be d7 05 48 be
       -0.21206018 0.07568427 -0.17129368 -0.19533478
000200 8c bf e2 bc 9e 08 38 be 09 3b 88 3e a6 b3 91 3d
       -0.027679227 -0.17972037 0.2660754 0.07114343
000210 78 91 81 be 73 01 18 be 3c 24 7e 3e 9c 30 de bd
       -0.25306296 -0.14844303 0.2481851 -0.10849115
000220 06 1c 58 3d 08 11 89 be e1 02 19 be d6 c3 46 be
       0.0527611 -0.26770806 -0.14942504 -0.19410643
000230 41 31 d3 3d 00 f8 41 be a0 d4 54 be 1e 9c d2 3d
       0.10312129 -0.1894226 -0.20784235 0.10283683
000240 49 b7 94 3c ff 9c 63 3d df 32 da bd 0e e3 26 be
       0.018153803 0.055569645 -0.10654234 -0.16297552
000250 23 0d 6b 3d f5 c1 6d be bc 18 77 be fd da 04 bb
       0.057385575 -0.2321852 -0.24130529 -0.0020272129
000260 3c 4f e5 bd 7f 4b 21 be 44 12 80 be e4 07 20 be
       -0.111967534 -0.15751456 -0.25013936 -0.1562801
000270 23 e9 52 be 35 d8 88 3e 30 68 0c 3b b4 3a 40 bd
       -0.20596747 0.26727453 0.0021424405 -0.046930984
000280 63 a9 51 be b4 1d 91 3d 2f af 14 3e dd c2 82 be
       -0.20474772 0.070857435 0.14519952 -0.25539294
000290 5e 88 3d 3e da 26 50 3d 04 b3 2b be bb 2c 25 3e
       0.18509051 0.0508183 -0.16767508 0.16130345
0002a0 4b 63 84 3e f4 f6 bd 3d 44 12 b3 be a7 f0 a9 3d
       0.25857005 0.09275618 -0.34974873 0.08297854
0002b0 28 c7 40 3e c9 cf f1 bd df 08 11 bc 9c 3f 81 be
       0.18825972 -0.1180721 -0.008852213 -0.25243843
0002c0 b7 b2 74 bd 60 ac 9c be a0 ef a9 bd e4 b9 dd 3d
       -0.05974075 -0.30600262 -0.08297658 0.108264714
0002d0 01 b7 2b be 33 bf 24 3e 7d c0 2d 3e eb 32 c3 bd
       -0.16769029 0.16088562 0.1696796 -0.09531196
0002e0 13 2a 75 bd fc df 62 be 11 fb 10 3e 8f 22 b3 be
       -0.05985458 -0.22155756 0.14158274 -0.34987304
0002f0 10 8d 82 be ae f2 bb 3d 66 7a 7b be b8 88 09 be
       -0.25498247 0.09177147 -0.2455841 -0.1343106
000300 77 29 39 be ea d6 62 bd 17 b9 b2 bb a5 b3 0e bd
       -0.18082224 -0.05538074 -0.0054541933 -0.03483929
000310 6f 5e 24 be 74 09 c7 bd 99 cf 3a 3d f4 b3 0c 3e
       -0.16051649 -0.097186 0.045608137 0.13740522
000320 59 57 e1 bd 7d cd 17 be d3 95 e2 3d 98 04 d8 bd
       -0.11002988 -0.14824481 0.11063733 -0.10547751
000330 cf cb 79 be 80 ff 4f 3e 60 86 7d 3d 44 19 5b 3e
       -0.24394153 0.2031231 0.061895728 0.21396357
000340 dd 22 22 3e 78 02 55 bd 5e a8 9e 3c d2 43 b4 bd
       0.15833612 -0.052004308 0.019367393 -0.08801998
000350 52 e9 10 be cd 2d aa 3e 62 b6 99 3d 2e 39 ad be
       -0.14151505 0.33238068 0.0750549 -0.33832687
000360 47 2d 7b be a1 f6 6f 3e 59 18 01 3e 6a 45 f1 bd
       -0.2452899 0.23433925 0.12606944 -0.11780818
000370 6c f3 0d be 5f 50 49 3e ad 49 6a be 7b 5d 6b 3d
       -0.1386239 0.19659565 -0.22879668 0.057462197
000380 3a 25 85 be e3 e0 9f 3d b7 56 44 3d b0 46 8e be
       -0.26004964 0.078065656 0.04793426 -0.27788305
000390 34 f9 97 be 0b 53 a3 bd 4f 22 2b bd 8a b1 78 be
       -0.29682314 -0.079748236 -0.041780766 -0.24286476
0003a0 8a a6 0a 3e 6f ff 91 3e a0 1e 37 3d 25 76 09 be
       0.13540092 0.28515193 0.04470694 -0.13423975
0003b0 4f f4 83 bd 8f 40 28 bd 85 06 ee bd 3d 72 0e 3e
       -0.064430825 -0.041077193 -0.11622337 0.13910766
0003c0 1d da 3e 3e 17 4a 9a bd 02 a8 b6 3e 90 e7 17 3d
       0.18637891 -0.07533663 0.35675055 0.03708607
0003d0 88 14 d1 bd d4 11 15 3d 1d ec 3c 3e 89 bf 64 bd
       -0.10208994 0.036393955 0.18449445 -0.055846725
0003e0 ae f5 54 3d cc 3c b6 3d 9e 09 97 3e 83 77 6c be
       0.05199211 0.08898315 0.29499525 -0.23092465
0003f0 28 83 22 be 3d 09 03 3e 4b 48 e7 bd 21 fb f7 3d
       -0.15870345 0.12796493 -0.11293086 0.12108446

fc2.weight f4 [4, 256]
000000 6e 18 9d bc 77 44 23 3e 81 2e 09 3e 9f bb 61 3c
       -0.019176688 0.15944086 0.13396646 0.0137776425
000010 d0 80 03 3e 69 c4 f8 3e 4b 5a 43 bd 3f 64 a8 3d
       0.12842107 0.4858735 -0.047693532 0.082222454
000020 d4 5a 22 3e 7e bf 99 3d 44 03 1d 3e 24 63 00 3d
       0.1585496 0.07507227 0.15333277 0.031344548
000030 08 60 3a 3d fb b3 93 be e7 eb 9b 3d b5 2d 56 3c
       0.04550174 -0.28848252 0.07613354 0.013072421
000040 25 af 33 3d 96 e3 d2 3d 4c ce c3 3d 5f 23 97 3b
       0.043868203 0.10297315 0.095608324 0.004612371
000050 b4 38 f1 3d 92 a2 bb 3d 00 56 28 3d 46 8a ba 3d
       0.117783934 0.09161867 0.04109764 0.09108405
000060 a4 a2 08 3d 3c ad 90 bd 4d 5e 81 3c bd 67 95 3c
       0.03335823 -0.07064292 0.015792036 0.018237943
000070 47 e6 22 be af 9e 36 3d 29 0c 15 3e fb b3 3f bd
       -0.15908156 0.044584926 0.1455542 -0.046802502
000080 0f 4f 54 3d 41 86 80 ba 12 28 bb 3d b6 dc a1 3b
       0.05183321 -0.0009805636 0.09138502 0.004939641
000090 7f 5d 09 3e 65 ca 22 3d dc bf a8 3c e4 96 65 3d
       0.13414572 0.0397438 0.020599298 0.056052104
0000a0 20 02 29 3e 36 cd e5 3d 4e ac c5 3d d2 92 a7 bc
       0.16504717 0.112207815 0.09652005 -0.020455752
0000b0 a3 4b 20 3e 5a bd 0e 3d 15 23 0d 3d 12 95 31 3e
       0.15653853 0.03484855 0.034457285 0.17342022
0000c0 0a b8 c4 bd 40 44 fd 3b 78 e5 29 3c 2a 45 fc 3d
       -0.09605415 0.0077290833 0.010369651 0.123178795
0000d0 20 95 61 3e 9a ba 6f 3e d9 b6 ee 3d 32 22 0a be
       0.22029543 0.23411027 0.11655969 -0.13489607
0000e0 3d 6f be 3d a0 21 15 3d 0d d4 7f 3d fb 10 58 bd
       0.09298561 0.03640902 0.062458087 -0.05275057
0000f0 e3 52 0f 3d 12 05 5e be 82 6b d1 bd a8 55 d9 3b
       0.034991156 -0.21681622 -0.102255836 0.0066325255
000100 5c ac a6 3c c9 52 17 3e 5a a8 c9 3d 0c 5d 1e 3e
       0.02034586 0.14777674 0.09846564 0.15465182
000110 68 01 be 3d fe c7 8c 3b 68 b8 6a 3e 7f 19 81 bd
       0.09277612 0.004296302 0.22921908 -0.06303691
000120 1e 69 43 3d 9f 00 1f 3e 16 fe 29 3c f9 32 48 3d
       0.04770767 0.1552758 0.01037552 0.048876736
000130 75 3e 4e 3d 73 3c d7 3d 53 c9 a4 3d a1 a8 99 3c
       0.050352532 0.10509577 0.08046212 0.018757166
000140 11 de a5 3d 30 3f 95 3e ec 3d 12 3e b4 67 80 bd
       0.080989964 0.2914977 0.14281434 -0.0626978
000150 db a4 27 3e 37 9e c3 3d 7c 4d 38 bd ac f7 d8 3c
       0.16371481 0.095516615 -0.04499577 0.026485287
000160 51 28 c8 3d b3 28 2d 3d a7 fe a6 bc 27 2e 6e 3d
       0.09773315 0.042275142 -0.0203851 0.058149483
000170 5f 5e 19 3e 20 da a9 3c 27 7a 55 3d 4a 92 49 3d
       0.14977406 0.020733893 0.052118447 0.049211778
000180 21 f0 32 3d 1d 76 2d 3d c0 5f e1 3d 72 d0 9f bd
       0.043686036 0.04234897 0.11004591 -0.0780343
000190 1c cd fb 3d 86 ea 45 3c 27 65 02 3e 66 27 a8 3d
       0.12294981 0.0120798405 0.12733899 0.0821064
0001a0 37 0d 8f 3d 8f 89 56 3e ba cc 0b 3e f1 6c 38 3d
       0.069849424 0.20950912 0.13652316 0.04502577
0001b0 f4 c0 a6 3d 36 f4 ff 3d fb 64 6e 3d ec 23 97 3d
       0.08142272 0.124977514 0.05820177 0.073798984
0001c0 f2 26 df 3c 07 0d ad 3d d9 61 f2 3c 06 a2 91 3d
       0.02724025 0.084497504 0.029587673 0.07110982
0001d0 3b f3 b2 3d e2 ed 32 3d 34 48 b4 3d 66 e5 0b 3d
       0.08737799 0.043683894 0.08802834 0.03415432
0001e0 6f 6f 62 3d 2f 62 b5 3d e6 97 db 3d 25 f7 c8 3d
       0.055282053 0.08856618 0.10722332 0.09812764
0001f0 83 e5 d1 3d bf 32 0d bd 13 bd 08 3e 0c 7f 30 3e
       0.10248854 -0.034472223 0.13353376 0.17235965
000200 b4 a2 f8 3c c7 5e 1c 3e 5d ed d6 3d fb 83 1a 3d
       0.03035102 0.1527053 0.10494492 0.037723523
000210 0d 37 a0 3d ac 01 cd bc e4 44 04 3e b0 01 27 3c
       0.07823 -0.025025211 0.12916905 0.010193273
000220 5a d0 1b 3d 87 52 2c 3e ab f1 12 3e a5 6d 51 3e
       0.038040496 0.16828357 0.14350002 0.20451982
000230 d5 39 e4 3d dd 85 16 3e 69 33 8c bd e1 2d 39 3d
       0.11143843 0.14699502 -0.06845743 0.04520977
000240 54 43 c4 3c ee 96 cf 3d 4e f5 97 3e 1e 09 43 3d
       0.023957886 0.101362094 0.2967934 0.047616117
000250 28 42 4b 3d 36 77 c0 3d df 9a 9d 3d d2 16 e8 bb
       0.04962364 0.09397738 0.07695555 -0.0070827985
000260 ff 7f 2a be 26 3f 0f bd d5 d2 1a 3e de e1 8c 3e
       -0.16650389 -0.034972332 0.15119489 0.27516073
000270 14 33 9f 3c e9 e7 c3 3d 6f f2 4c 3d 90 92 6e bd
       0.019433536 0.09565718 0.05003589 -0.05824524
000280 b2 ca 80 3d d4 95 93 bc f4 79 2b 3d 0f db c6 bb
       0.06288661 -0.01801578 0.04186435 -0.0060685943
000290 db 8c b8 3d 6b b1 81 3c 4a d9 e1 3d 3f 9d 41 3e
       0.09011241 0.01583167 0.11027773 0.18907641
0002a0 fb 9f 8e 3d 83 c4 db 3d 30 19 2f 3e 94 8c bc 3c
       0.069641076 0.10730841 0.17099452 0.023016252
0002b0 23 c7 0f 3d ce ab c2 bd c5 c2 c1 3c e6 34 5c 3c
       0.03510202 -0.095054254 0.023652444 0.013440346
0002c0 44 c9 3f be 3e af 97 3e 81 5f 03 bd 18 6a 19 3d
       -0.1872912 0.29625887 -0.0320735 0.037454695
0002d0 fe d2 cb 3d bd 0d 3f 3d df 33 a8 3c 81 d4 92 be
       0.09952353 0.04664396 0.020532547 -0.28677753
0002e0 02 b5 07 3e be 55 e5 3d 21 38 9d 3d ce 6e 4c bd
       0.13252643 0.11197995 0.07676721 -0.04991036
0002f0 94 f5 d9 3b 67 66 39 be 21 37 7f 3d 05 68 2f 3f
       0.0066515896 -0.1810547 0.062308434 0.68518096
000300 40 19 03 be 77 f5 40 bc c4 58 62 bd 56 57 09 bd
       -0.12802601 -0.011777273 -0.055260435 -0.033530556
000310 30 91 b0 3e 22 4e 32 3d 52 d5 50 3d bd ee bc 3d
       0.3448577 0.043531545 0.050984688 0.09225223
000320 5d 80 d7 3d be 58 2a 3d e2 69 27 bb 93 49 dc 3c
       0.1052253 0.041588537 -0.0025545289 0.026890552
000330 5b a2 45 bd 0b 0e 12 3d 53 00 c7 3d 03 fd 3f 3d
       -0.048250537 0.035657924 0.09716859 0.04687215
000340 85 41 90 3d 81 2c 71 3d d2 81 af 3d d1 b4 c3 3b
       0.07043747 0.058880333 0.08569683 0.0059724827
000350 ed 5c a6 3e 75 c0 03 3e 5d 29 26 3f 26 2d 6c 3e
       0.32492772 0.12866385 0.64906865 0.23064098
000360 4a 93 ee 3c 46 37 23 3e 4a 5a d5 3d 38 eb 84 3d
       0.029122967 0.15939054 0.10417612 0.06490177
000370 a6 16 f6 3d dc 3a 40 3d e3 01 76 3d e8 56 a5 3c
       0.120160386 0.046931133 0.060060393 0.020183042
000380 64 07 aa 3d 81 51 6f 3d b1 f2 04 bd 14 7b 73 3d
       0.08302191 0.058427338 -0.03245801 0.05944355
000390 6f 0d d0 be 67 c2 31 3d 40 c9 11 bc 3c 89 0d 3c
       -0.4063525 0.043398287 -0.008898079 0.008638676
0003a0 b0 01 11 3e 93 e7 bc 3d c8 6e 8f 3d 30 f6 b9 3d
       0.141608 0.09223857 0.07003552 0.0908016
0003b0 56 e3 e2 3d 56 31 2f 3c 81 8c d2 ba b3 90 b8 3d
       0.11078517 0.010692915 -0.0016063602 0.09011974
0003c0 82 3f ce 3d 2f c9 a9 3d de 46 dd 3d 52 2c 1b 3d
       0.10070707 0.08290326 0.108045325 0.037884064
0003d0 68 0f fa 3d 63 f4 04 3e e7 20 a6 3d 21 18 01 3d
       0.1220997 0.12983851 0.081117444 0.03151715
0003e0 6a 86 09 3d 39 b5 0f 3d 74 01 0d 3e cc 04 6d 3e
       0.033575453 0.035084937 0.13770086 0.23146361
0003f0 72 32 f8 3d 32 a5 65 3d 06 5b 35 3d 3b 35 99 3d
       0.12118997 0.056065746 0.04427626 0.07480856

fc2.bias f4 [4]
000000 5e 66 8e be e5 2b a1 be a7 f8 13 be 82 2d 2d be
       -0.27812475 -0.314788 -0.14450322 -0.16911891
