checkpoints/checkpoint2.pth (torch_old, 43809 bytes, 4 tensors)

fc1.weight f4 [256, 37]
0	0xbda75cfb	-0.081720315
1	0x3dd2f4cf	0.103006
2	0xbefa304a	-0.48864967
3	0xbe61df7c	-0.22057909
4	0xbe1c54aa	-0.15266672
5	0xbb0e1a63	-0.0021683208
6	0xbe465a2a	-0.19370332
7	0x3dc80d0b	0.09768113
8	0x3e1a8128	0.15088332
9	0xbedfc10a	-0.43701965
10	0x3d9dc77f	0.077040665
11	0xbee58ebd	-0.44835463
12	0xbf09b8b2	-0.5379745
13	0xbf045168	-0.51686716
14	0xbf94432a	-1.1582997
15	0xbea88c31	-0.32919458
16	0xbd027d6c	-0.031857893
17	0x3d8a9fcb	0.06768759
18	0xbe58a464	-0.2115646
19	0xbdebb10c	-0.115083784
20	0x3e02d056	0.12774786
21	0xbee96017	-0.45581123
22	0xbdda5d64	-0.10662344
23	0xbecc54cc	-0.39908445
24	0xbf2cf650	-0.67563343
25	0xbddfccf3	-0.10927763
26	0xbd85458f	-0.06507408
27	0xbe41cdb7	-0.1892613
28	0x3d838ce6	0.064233586
29	0xbdd20323	-0.102545045
30	0xbe4af858	-0.19821298
31	0x3d3f519e	0.046708696
32	0xbe77dcb3	-0.24205284
33	0xbdd22510	-0.10260975
34	0xbe3d6c33	-0.18498306
35	0x3daadd20	0.083429575
36	0xbd45609a	-0.04818783
37	0x3e19a5f7	0.15004717
38	0xbf115770	-0.56774044
39	0xbde513d7	-0.11185425
40	0xbe3018ec	-0.17197007
41	0xbf73a416	-0.9517225
42	0xbf0e98ff	-0.55702204
43	0x3e37a400	0.17933655
44	0x3e013229	0.12616791
45	0xbe931f8e	-0.28735012
46	0xbe5bc746	-0.21462736
47	0x3e324fe9	0.17413296
48	0xbe98ce52	-0.2984491
49	0xbecc82b2	-0.39943463
50	0xbe1e6520	-0.15468264
51	0xbe8473bb	-0.25869545
52	0x3d4188ee	0.047249727
53	0xbec983e9	-0.39358452
54	0x3ceaba62	0.028653327
55	0xbec570e9	-0.38562706
56	0xbfd3ed3a	-1.6556771
57	0xbebe62cc	-0.3718475
58	0x3d883492	0.06650652
59	0xbd40c63d	-0.047064055
60	0xbf2636c2	-0.64927304
61	0x3dc424f0	0.09577358
62	0xbe740af7	-0.23832308
63	0xbe6f0b10	-0.23344064
64	0xbdc21f98	-0.09478682
65	0xbe904bc9	-0.2818282
66	0xbf32b157	-0.6980185
67	0x3e8aeeae	0.27135223
68	0xbdfc2e27	-0.1231349
69	0xbe901da6	-0.2814762
70	0xbf147b50	-0.5800066
71	0xbf423cfd	-0.7587431
72	0x3e2c61b8	0.16834152
73	0xbce89b97	-0.028394504
74	0xbe563f3e	-0.20922562
75	0xbee16705	-0.4402391
76	0x3e194cbb	0.14970677
77	0xbed2a8d6	-0.41144437
78	0xbf3e65c8	-0.74374056
79	0xbf296c73	-0.66181105
80	0xbecc66dc	-0.39922225
81	0x3e88b17e	0.26697916
82	0xbf0b40aa	-0.54395545
83	0xbeba95db	-0.36442456
84	0xbe5e0b26	-0.2168394
85	0xbd07377f	-0.03301191
86	0xbe72a192	-0.23694447
87	0xbf4fa883	-0.81116503
88	0xbec70061	-0.38867477
89	0xbe8bb2bd	-0.27284804
90	0xbedd380d	-0.43206826
91	0x3e00eaec	0.12589616
92	0xbf0c4b33	-0.54802245
93	0xbf439941	-0.7640572
94	0xbf10b43d	-0.5652502
95	0xbe2e31ff	-0.1701126
96	0xbeaad8d4	-0.33368552
97	0x3e7bdc79	0.24595822
98	0xbf64b100	-0.8933258
99	0xbf3fbc65	-0.7489684
100	0xbe34db62	-0.17661813
101	0x3e4c0715	0.19924577
102	0xbecb3c0d	-0.39694253
103	0xbf2d328c	-0.67655253
104	0x3e931b4c	0.28731763
105	0xbf0f703b	-0.56030625
106	0xbf17145e	-0.5901545
107	0xbf3e89df	-0.74429125
108	0xbecc84d2	-0.39945084
109	0xbe5e1251	-0.21686675
110	0x3bd83dd7	0.0065991688
111	0x3ea1ff4e	0.31640095
112	0x3ddda742	0.108229175
113	0xbe95b659	-0.29240683
114	0xbe6cb5df	-0.23116253
115	0xbf2d060f	-0.6758737
116	0xbdd8d613	-0.105877064
117	0xbe543fc0	-0.20727444
118	0x3f070906	0.52748144
119	0xbeeb8db8	-0.4600656
120	0xbf0e7b56	-0.55656946
121	0x3db13cfd	0.08654211
122	0xbedfc08e	-0.43701595
123	0xbd918e75	-0.0710725
124	0xbe222e57	-0.1583799
125	0xbf78ae64	-0.971411
126	0xbdf1222a	-0.117740944
127	0xbee7d93d	-0.45282927
128	0xbf126194	-0.5718014
129	0x3c924bbb	0.017858377
130	0xbf1e1016	-0.61743295
131	0xbdec49c0	-0.11537504
132	0xbe4a69f1	-0.19766976
133	0xbf81acf0	-1.0130901
134	0x3eada680	0.33916092
135	0xbf827c80	-1.0194244
136	0x3dc8463e	0.09779023
137	0xbf1b330f	-0.60624784
138	0x3ddfc784	0.109267265
139	0x3d448c79	0.047985528
140	0xbf16b014	-0.58862424
141	0xbd0c0682	-0.034185894
142	0x3a87c135	0.0010357263
143	0xbd19ff14	-0.037596777
144	0xbf5b8feb	-0.85766476
145	0xbf608754	-0.87706494
146	0x3e8ce87f	0.2752113
147	0xbd14c121	-0.036316995
148	0xbec0bf15	-0.37645784
149	0xbf124551	-0.5713702
150	0xbe82f9d4	-0.2558123
151	0xbee658d8	-0.44989657
152	0xbf85ff2e	-1.04685
153	0xbec7287d	-0.38898078
154	0xbead21f8	-0.3381498
155	0x3c828c2e	0.015935984
156	0xbedf3726	-0.43596762
157	0xbfc7116c	-1.5552192
158	0xbf538366	-0.82622373
159	0x3e649f34	0.22326356
160	0xbedce2cf	-0.4314179
161	0xbec06506	-0.37577075
162	0xbeeefa97	-0.4667556
163	0xbe3be97d	-0.18350787
164	0xbf34b2e7	-0.70585483
165	0xbe97030e	-0.29494518
166	0xbec09c95	-0.37619463
167	0xbf39a3ac	-0.7251537
168	0xbf6de4f1	-0.9292746
169	0x3e58dc2a	0.21177736
170	0xbe86699e	-0.26252455
171	0xbeb80931	-0.35944512
172	0xbecffb4f	-0.4062142
173	0xbe00d97b	-0.12582962
174	0xbece1a6d	-0.40254536
175	0xbdf32e0d	-0.11874018
176	0xbf07e481	-0.53083044
177	0xbfa5e8d1	-1.2961675
178	0xbddc59ec	-0.10759339
179	0xbec69eed	-0.38793126
180	0x3d50fb4c	0.051020905
181	0xbf0ed910	-0.5579996
182	0xbf4cb350	-0.7996111
183	0x3f15522f	0.5832853
184	0x3a8a364f	0.001054475
185	0xbeeb8b2c	-0.46004617
186	0xbe100c21	-0.14067127
187	0xbeb5d412	-0.3551336
188	0x3e30e1dd	0.1727366
189	0xbd92b70f	-0.07163822
190	0x3ddf70f2	0.109102145
191	0xbd62b0a1	-0.055344228
192	0xbe05cf10	-0.1306727
193	0xbeeccfd9	-0.46252325
194	0xbfe76e00	-1.8080444
195	0xbe3bc9d0	-0.18338704
196	0xbe8143f7	-0.25247166
197	0xbe508041	-0.20361425
198	0xbefcdeea	-0.4938882
199	0xbe94f2fc	-0.29091632
200	0xbd534adb	-0.05158506
201	0xbeb1104c	-0.34582746
202	0xbe24cfcd	-0.16094895
203	0xbea72961	-0.32648757
204	0xbf0feba8	-0.5621896
205	0xbe20c92a	-0.15701738
206	0xbdacf3b7	-0.084449224
207	0xbe2ee40e	-0.17079183
208	0x3eaecb0d	0.3413929
209	0xbe8bb459	-0.27286032
210	0xbeb6503e	-0.35608095
211	0xbe9553d2	-0.29165512
212	0x3de19ca6	0.110162064
213	0x3ee6fefb	0.4511641
214	0x3e61253e	0.21986863
215	0xbe99060d	-0.2988743
216	0xbe1f5a1c	-0.15561718
217	0xbd035cac	-0.0320708
218	0xbe2fc007	-0.17163096
219	0xbe4bb690	-0.19893861
220	0x3df0b4e7	0.117532544
221	0xbaa8d887	-0.0012881913
222	0xbdc611db	-0.096713744
223	0xbf5245fc	-0.8213804
224	0xbded42f9	-0.1158504
225	0xbd96b647	-0.073589854
226	0xbf97e60b	-1.1867079
227	0xbdbcedbb	-0.09225031
228	0xbea167b7	-0.3152444
229	0xbf0e910c	-0.55690074
230	0xbef15f31	-0.47142938
231	0xbecb96e5	-0.3976356
232	0xbdd45616	-0.10367982
233	0x3d9e9587	0.07743364
234	0xbe3252a7	-0.17414342
235	0xbe54664c	-0.20742148
236	0xbed19635	-0.4093491
237	0xbe19d269	-0.15021671
238	0xbe8f8a64	-0.2803527
239	0xbd3ef94f	-0.046624478
240	0xbe60b038	-0.21942222
241	0xbed6162a	-0.41813785
242	0xbdc79121	-0.09744478
243	0xbe4e3546	-0.2013751
244	0xbdada36e	-0.08478437
245	0xbe2add7b	-0.1668605
246	0xbe4c19ec	-0.19931763
247	0xbe54401d	-0.20727582
248	0xbec938d0	-0.39301157
249	0xbf2d7ac6	-0.6776546
250	0xbf2856e9	-0.65757614
251	0xbf8abd65	-1.0839049
252	0x3cf3e9e7	0.02977462
253	0xbf0ed042	-0.55786526
254	0xbf0c4714	-0.54795957
255	0xbe2a656e	-0.16640255

fc1.bias f4 [256]
0	0xbe24d192	-0.1609557
1	0xbe652c7e	-0.22380254
2	0xbe3d64e2	-0.18495515
3	0xbea68f3f	-0.32531163
4	0xbe7f4f78	-0.24932659
5	0xbea5a07a	-0.32348996
6	0xbed2d42d	-0.41177502
7	0xbeb0bd38	-0.34519362
8	0xbed861c5	-0.42262092
9	0xbf000c3d	-0.50018674
10	0xbe1a3e81	-0.15062906
11	0xbe56694d	-0.20938607
12	0xbee50a2b	-0.4473432
13	0xbeadef6e	-0.33971733
14	0xbeacdbc5	-0.3376142
15	0xbe2eb453	-0.17060976
16	0xbe104cd0	-0.14091802
17	0xbef49676	-0.47771043
18	0xbebdd6b0	-0.37077856
19	0xbeb7a424	-0.35867417
20	0xbe7ee691	-0.24892642
21	0xbe2a2932	-0.16617277
22	0xbe2022ee	-0.15638325
23	0xbeb3e9fc	-0.35139453
24	0xbe03716d	-0.12836237
25	0xbe8de51d	-0.27713862
26	0xbe0a9410	-0.13533044
27	0xbd1710bb	-0.03688119
28	0xbe6aec03	-0.22941594
29	0x3e24201f	0.16027878
30	0xbe260362	-0.16212228
31	0xbe9c9568	-0.30582738
32	0xbebf5fc5	-0.37377754
33	0xbe6123e0	-0.21986341
34	0xbe83a33e	-0.2571048
35	0xbe653fd6	-0.22387633
36	0xbe17ccba	-0.1482419
37	0xbe243664	-0.16036373
38	0xbea6292c	-0.32453287
39	0xbe0c0ab8	-0.13675964
40	0xbebe541a	-0.3717354
41	0xbe5c16ce	-0.21493074
42	0xbc04904e	-0.008091046
43	0xbe302e8c	-0.17205256
44	0xbeb830e2	-0.35974795
45	0xbe689001	-0.22711183
46	0xbee9bae5	-0.45650402
47	0xbe8e9d3d	-0.27854338
48	0xbeb3de57	-0.3513057
49	0xbe196fa0	-0.14983988
50	0xbe91da27	-0.2848675
51	0xbccfd882	-0.025371794
52	0xbe6f4704	-0.23366934
53	0xbe6afdf4	-0.22948438
54	0xbead8bde	-0.33895773
55	0xbe4abe9c	-0.19799274
56	0xbcfb453a	-0.030672658
57	0xbcd978b3	-0.026546812
58	0xbdf92fb1	-0.121672995
59	0xbe63953e	-0.222249
60	0xbe7d57f2	-0.2474058
61	0xbe5aa271	-0.21351029
62	0xbe443679	-0.19161405
63	0xbea7378f	-0.32659575
64	0xbe15da18	-0.14633977
65	0xbebc0c16	-0.3672797
66	0xbee78062	-0.45215136
67	0xbeb78592	-0.35844094
68	0xbea088cb	-0.31354365
69	0xbed96ba2	-0.4246493
70	0xbe8cf0c9	-0.27527454
71	0x3d8991ed	0.06717286
72	0xbea619cc	-0.32441556
73	0xbe4b0285	-0.1982518
74	0xbe8951d5	-0.26820245
75	0xbe20d982	-0.15707973
76	0xbe2baa1c	-0.1676411
77	0xbe01bd6d	-0.12669916
78	0xbe96ac04	-0.29428113
79	0xbd5de104	-0.05416967
80	0xbde3eab2	-0.11128749
81	0xbda3de72	-0.080014125
82	0xbe4f01a7	-0.20215474
83	0xbe669871	-0.2251909
84	0xbe998864	-0.2998687
85	0xbe96dc0d	-0.2946476
86	0xbe80ffab	-0.2519506
87	0xbdc3b4ff	-0.09556007
88	0x3e95e5d2	0.292769
89	0xbe93b705	-0.2885057
90	0xbc8e4eee	-0.017371621
91	0xbec4453a	-0.38334066
92	0xbedc34ed	-0.4300913
93	0xbc3700ba	-0.011169607
94	0xbe26500c	-0.16241473
95	0xbe05718e	-0.13031599
96	0xbe7cd9eb	-0.24692504
97	0xbeade993	-0.33967265
98	0xbe772af8	-0.24137485
99	0xbe317f91	-0.17333819
100	0xbeac4115	-0.33643404
101	0xbef0816b	-0.46973738
102	0xbee83ac2	-0.4535733
103	0xbe7b06e3	-0.24514346
104	0xbef58380	-0.4795189
105	0xbed9dc82	-0.42551047
106	0xbe111689	-0.14168753
107	0xbe714956	-0.23563132
108	0xbef52a1c	-0.4788369
109	0xbe242027	-0.1602789
110	0xbd1682e5	-0.036745925
111	0xbe07041f	-0.13185166
112	0xbc48543e	-0.012227116
113	0xbea575d7	-0.32316467
114	0xbdd9827f	-0.10620593
115	0xbe5ddf2d	-0.21667166
116	0xbe307211	-0.17231013
117	0xbe68c195	-0.22730096
118	0x3e5067f3	0.20352153
119	0xbe734b97	-0.23759304
120	0xbe7a34c1	-0.24434187
121	0xbe030140	-0.12793446
122	0xbe966f47	-0.29381773
123	0xbd42f835	-0.04759999
124	0xbea57408	-0.32315087
125	0xbe576380	-0.2103405
126	0xbe83fada	-0.25777322
127	0x3e680cb8	0.22661102
128	0x3d9effff	0.07763671
129	0xbdbd096e	-0.09230314
130	0xbebebd1a	-0.37253648
131	0xbe52c058	-0.20581186
132	0xbea22bf5	-0.31674162
133	0xbe7b4735	-0.24538882
134	0xbdbab649	-0.091167994
135	0xbeb59ad1	-0.35469678
136	0xbe7399ac	-0.2378909
137	0xbeec3a98	-0.46138453
138	0xbedc0b07	-0.42977163
139	0xbf0419e4	-0.51602006
140	0xbe93c860	-0.28863811
141	0x3dba04e0	0.09082961
142	0xbeb11c7d	-0.34592047
143	0xbe9cc79b	-0.30621037
144	0xbe259406	-0.16169748
145	0xbe9cd5b9	-0.30631807
146	0xbeefb815	-0.4682013
147	0xbe2ff22c	-0.17182225
148	0xbec0e24b	-0.37672648
149	0xbdd79418	-0.105262935
150	0xbebe315c	-0.37147033
151	0xbee5efef	-0.44909617
152	0xbeb89a2a	-0.36055118
153	0xbedaa461	-0.42703536
154	0xbdacf841	-0.08445788
155	0xbe7cb9e2	-0.24680284
156	0xbdfd7b32	-0.12377013
157	0xbef171f8	-0.47157264
158	0xbe75b098	-0.23993146
159	0xbd468eb9	-0.048475955
160	0xbea0ea2e	-0.31428665
161	0xbd8758f8	-0.06608766
162	0xbe1f0155	-0.15527852
163	0xbeb6b9cb	-0.35688624
164	0xbd595060	-0.053055167
165	0xbe98bef5	-0.2983319
166	0xbe4be7d4	-0.19912654
167	0xbec2c8e3	-0.3804389
168	0xbdf0797a	-0.1174192
169	0xbebf9637	-0.37419292
170	0xbdd7bd3e	-0.10534142
171	0xbe9c2ddb	-0.30503735
172	0xbe0f49e1	-0.13993026
173	0x3cf3e836	0.029773813
174	0xbe5b6a1f	-0.214272
175	0xbe7ac532	-0.24489287
176	0xbd3e9105	-0.04652502
177	0xbeed1ec3	-0.46312532
178	0xbe808b60	-0.25106335
179	0xbe85ce9a	-0.26134187
180	0x3f2ddca7	0.67914814
181	0xbeb48b80	-0.3526268
182	0xbebd330e	-0.36953014
183	0xbeb60e22	-0.35557657
184	0xbebb3cf1	-0.36569932
185	0xbe209858	-0.15683115
186	0x3d949fc7	0.072570376
187	0xbe9538ac	-0.291448
188	0xbd5d348b	-0.054005187
189	0xbd4dc421	-0.05023587
190	0xbeab0167	-0.33399507
191	0xbe8ac5fa	-0.2710417
192	0xbe19350e	-0.14961645
193	0x3f2d529f	0.67704195
194	0xbe90ffbe	-0.28320116
195	0xbe5d2407	-0.21595775
196	0xbdff3fcc	-0.1246334
197	0xbee53465	-0.44766536
198	0xbedbf24c	-0.42958295
199	0xbe2e775d	-0.17037721
200	0xbe1556fd	-0.14583965
201	0xbe75ca1e	-0.24002883
202	0xbef5a939	-0.4798067
203	0xbe19a694	-0.15004951
204	0x3cdd3c38	0.027006254
205	0xbecc093d	-0.39850798
206	0x3d32e7a6	0.04367795
207	0x3e28205a	0.16418591
208	0xbe62b584	-0.22139555
209	0xbe1fa7c1	-0.15591337
210	0xbe9d5e38	-0.30735946
211	0xbec46943	-0.38361558
212	0xbea690ab	-0.32532248
213	0xbee8a27d	-0.4543647
214	0xbe0e9cae	-0.13926956
215	0xbef830e9	-0.48474815
216	0xbe92d182	-0.28675467
217	0xbea7533c	-0.3268069
218	0xbe60117c	-0.2188167
219	0xbec83472	-0.39102513
220	0xbe647a58	-0.22312295
221	0xbe7299a2	-0.23691419
222	0xbe38d1c3	-0.18048768
223	0xbdc2df80	-0.095152855
224	0xbec967a4	-0.39336884
225	0xbeaf1dcb	-0.34202418
226	0xbe26268c	-0.16225642
227	0xbe0fb199	-0.14032592
228	0xbe5eae3a	-0.2174615
229	0xbed87d44	-0.4228307
230	0xbebb1766	-0.3654129
231	0xbe50a93d	-0.2037706
232	0xbe5611f9	-0.20905294
233	0xbe72011e	-0.23633239
234	0xbe87cb6e	-0.26522392
235	0xbec7c925	-0.3902065
236	0xbf02285d	-0.5084284
237	0xbe9f3045	-0.31091514
238	0xbea83283	-0.32851037
239	0xbebbd61d	-0.36686793
240	0xbe302e30	-0.17205119
241	0xbdcbc66b	-0.099499546
242	0xbebc3d1f	-0.36765382
243	0xbe5c65a3	-0.21523146
244	0xbea476a0	-0.32121754
245	0xbe6f453f	-0.23366259
246	0xbe84287e	-0.25812143
247	0xbda8c0ef	-0.08239924
248	0xbea314cd	-0.31851807
249	0xbe7b96c7	-0.24569236
250	0xbe0eb4de	-0.13936183
251	0xbeab9b45	-0.335169
252	0xbe91e3fc	-0.2849425
253	0xbd4587cf	-0.04822522
254	0xbe9094a8	-0.28238416
255	0xbe9c42b7	-0.3051965

fc2.weight f4 [4, 256]
0	0x3e245de8	0.16051447
1	0xbe9c9764	-0.30584252
2	0xbe96a9f7	-0.29426548
3	0x3eb047ec	0.34429872
4	0xbd819cd6	-0.06328742
5	0x3e1387ee	0.14407322
6	0x3da2e972	0.079546824
7	0xbd9424a8	-0.07233554
8	0x3dda74d0	0.106668115
9	0x3ce9eb5e	0.028554615
10	0x3da25699	0.079266734
11	0x3e280fcd	0.16412278
12	0x3e7f2d88	0.24919713
13	0xbd51bcc3	-0.051205408
14	0x3ed831cd	0.42225495
15	0x3d3d8f3c	0.046279177
16	0xbe848f75	-0.258907
17	0xbab24121	-0.0013599732
18	0x3e31773b	0.17330639
19	0xbdbd0578	-0.09229559
20	0xbf2a7f73	-0.6660072
21	0x3e53f532	0.20699003
22	0xbd21461e	-0.03937351
23	0x3d6fee74	0.058577016
24	0xbda1b549	-0.078959055
25	0x3ed9d67b	0.42546448
26	0x3e1191b3	0.14215736
27	0xbeb1dd1e	-0.34739012
28	0x3e0664e8	0.1312443
29	0x3e117389	0.1420423
30	0xbda17191	-0.07882989
31	0x3e95a4ad	0.292272
32	0x3e2a0ac6	0.16605672
33	0x3d2edad7	0.04268917
34	0xbdcd7f0d	-0.10033999
35	0x3e552f7c	0.20818895
36	0x3e848026	0.2587902
37	0x3ce15bff	0.027509687
38	0x3e397e22	0.18114522
39	0x3e2d74cb	0.16939084
40	0xbdcff6da	-0.10154505
41	0x3d8a712f	0.06759869
42	0xbf214ffe	-0.63012683
43	0x3da5972d	0.08085475
44	0x3e064391	0.13111712
45	0x3e0b5026	0.13604793
46	0x3e56d924	0.2098127
47	0xbdbf4e56	-0.09341113
48	0xbe4c515d	-0.19952913
49	0x3dbfd899	0.093674846
50	0xbdc03867	-0.09385758
51	0xbf12a7fa	-0.5728756
52	0xbf013108	-0.5046544
53	0xbe48e528	-0.19618666
54	0xbc72493e	-0.01478797
55	0x3e4916e6	0.19637641
56	0x3da5c4db	0.08094188
57	0x3f538541	0.82625204
58	0x3db7fe8b	0.08984097
59	0xbecf2b69	-0.40462807
60	0x3e8775d3	0.2645708
61	0xbf04b177	-0.5183329
62	0x3d7506cd	0.05982094
63	0x3d111c56	0.035427414
64	0x3d9df0b3	0.07711925
65	0xbde9ef65	-0.11422614
66	0x3e04bef4	0.12963468
67	0x3e880d19	0.26572493
68	0x3c2eb40f	0.0106630465
69	0x3d8d5048	0.06900078
70	0x3ea51da2	0.3224917
71	0x3ed9386a	0.42425853
72	0xbe4cc59b	-0.19997256
73	0xbdb5df60	-0.08880496
74	0x3e13d078	0.14434993
75	0xbd054cfe	-0.03254413
76	0xbee3ee1d	-0.44517604
77	0xbeb69bda	-0.3566578
78	0x3f065bd2	0.52483857
79	0xbce0034e	-0.027345326
80	0x3dcddca9	0.10051853
81	0x3d0ef283	0.034899246
82	0xbdfb6970	-0.1227597
83	0xbc81fa45	-0.015866408
84	0xbdf88e22	-0.12136485
85	0x3ee24475	0.44192854
86	0xbeccf422	-0.4003001
87	0x3d298ad9	0.04139218
88	0x3d1fb06e	0.038986616
89	0x3e325c6e	0.17418072
90	0xb868655f	-5.540752e-05
91	0xbe0f7662	-0.14010003
92	0xbeb85616	-0.36003178
93	0xbe49c82e	-0.19705269
94	0x3cb21ef5	0.021743277
95	0xbed90b2a	-0.4239133
96	0x3e495f93	0.19665365
97	0xbe0e61fb	-0.13904564
98	0xbc692edb	-0.014232363
99	0x3cf9fa7b	0.030514946
100	0xbc710b6c	-0.014712196
101	0x3e63ee76	0.22258934
102	0x3d2cbf02	0.042174347
103	0x3c63adc7	0.013896412
104	0xbc929af4	-0.017896153
105	0x3de73d25	0.11290959
106	0xbe84b0dc	-0.25916183
107	0xbe7f90da	-0.249576
108	0x3e8d815f	0.27637765
109	0x3e90c4e1	0.28275207
110	0x3e03f845	0.12887676
111	0xbe081b3e	-0.13291642
112	0x3db7035a	0.08936186
113	0x3ee99575	0.4562184
114	0x3f1d91b1	0.6155043
115	0xbeaaf641	-0.33391002
116	0xbf111522	-0.5667287
117	0x3ed8cffc	0.4234618
118	0x3ebd769f	0.37004563
119	0xbcb86aca	-0.022511858
120	0xbe18e3fa	-0.14930716
121	0x3cc03ee2	0.023467485
122	0xbdffbbfc	-0.12487027
123	0xbf04991d	-0.5179613
124	0x3de2d220	0.110752344
125	0x3d80f6b0	0.06297052
126	0xbe7a2916	-0.24429736
127	0xbe962a47	-0.2932913
128	0x3f22cdef	0.6359548
129	0x3e100821	0.14065601
130	0x3d69dc1e	0.057094686
131	0xbef489f7	-0.4776151
132	0x3e295efe	0.16540143
133	0xbdf57a8b	-0.11986264
134	0x3dbe007e	0.092774376
135	0xbeb47ef5	-0.3525311
136	0xbd186657	-0.037206974
137	0x3e92d88c	0.28680837
138	0xbe432606	-0.19057474
139	0xbe68b707	-0.2272607
140	0xbe426a95	-0.1898597
141	0xbdc616a2	-0.096722856
142	0x3e94664d	0.289843
143	0xbdcb0689	-0.09913356
144	0xbda4e8b1	-0.08052195
145	0xbe4dc5cb	-0.20094983
146	0x3e03b8de	0.1286349
147	0x3d654fdb	0.05598436
148	0xbd6c8617	-0.057745066
149	0x3deadf83	0.11468413
150	0x3e2af2bd	0.1669416
151	0x3c4fb41f	0.012677222
152	0xbe5d54e5	-0.21614416
153	0xbea2636c	-0.31716478
154	0xbe9e6d02	-0.3094254
155	0xbd1f7f1c	-0.03893958
156	0x3e0bd94f	0.13657115
157	0x3ed3185e	0.41229528
158	0x3d9c75e6	0.07639675
159	0x3efc7da9	0.4931462
160	0x3d75185e	0.05983769
161	0x3d9f25c5	0.07770876
162	0x3e143234	0.14472276
163	0xbe132f10	-0.14373422
164	0x3dcb0926	0.09913854
165	0xbcd37ad4	-0.025815405
166	0x3d95eb6c	0.07320294
167	0x3e2c790a	0.16843048
168	0xbc9b656d	-0.018969262
169	0xbdbb2ef1	-0.09139813
170	0x3d23226c	0.03982775
171	0xbe846ea9	-0.25865677
172	0x3db4159b	0.087931834
173	0xbda58149	-0.080813
174	0x3cc9638d	0.024583602
175	0xbd0a51fc	-0.033769593
176	0xbeb9dd6a	-0.36301738
177	0xbdd8ab78	-0.1057958
178	0x3e4bb124	0.19891793
179	0x3f2ca9ca	0.6744658
180	0x3e58c69a	0.2116951
181	0x3cfda853	0.030964052
182	0xbeb1ea47	-0.34749052
183	0x3e5c4e59	0.21514262
184	0x3c947ed9	0.018126892
185	0x3ed2ea80	0.41194534
186	0x3bdee3a0	0.0068020374
187	0xbd17c112	-0.03704936
188	0x3dd889c4	0.10573152
189	0xbd9e55d0	-0.07731211
190	0x3cb152fa	0.021646012
191	0xbe74c897	-0.23904644
192	0xbe1aa780	-0.15102959
193	0x3eb78a85	0.3584787
194	0x3e9af00d	0.3026127
195	0xbc25e493	-0.010125297
196	0x3e1dfac3	0.15427689
197	0xbdc4b905	-0.09605602
198	0xbe40b201	-0.18817903
199	0x3d764205	0.060121555
200	0xbcad9243	-0.021187907
201	0xbd3b8292	-0.04577882
202	0x3e3ad3fc	0.18244928
203	0xbe125c06	-0.14292917
204	0x3d372851	0.044716183
205	0x3e25ad8d	0.16179486
206	0xbed67e4b	-0.4189323
207	0x3e9e972f	0.3097472
208	0xbe674600	-0.22585297
209	0xbcc2b745	-0.02376903
210	0x3e837fc2	0.2568341
211	0x3e2edac7	0.17075644
212	0x3d3aeb2b	0.04563443
213	0x3e432d07	0.19060145
214	0xbea1a656	-0.31572217
215	0xbe508568	-0.2036339
216	0xbeb192ae	-0.3468222
217	0x3b5fbc80	0.0034139454
218	0xbe6a173c	-0.22860426
219	0xbc4f2803	-0.012643817
220	0x3d9ad705	0.07560543
221	0xbb032f3d	-0.002001717
222	0xbe1507e7	-0.14553796
223	0x3c5ce2a1	0.013481767
224	0xbed84e43	-0.4224721
225	0xbc7fcc11	-0.015612618
226	0x3de5f1b5	0.112277426
227	0x3d594ad5	0.05304988
228	0x3e9ef925	0.31049457
229	0x3d33605d	0.04379307
230	0xbbfc34ac	-0.0076967087
231	0x3d7f596d	0.062341142
232	0x3d01ee9e	0.031721704
233	0xbec3f3ea	-0.3827203
234	0x3ca557a7	0.020183397
235	0xbe4ced22	-0.20012334
236	0x3e3113c1	0.17292692
237	0x3d85aa1c	0.065265864
238	0xbf2fed8a	-0.6872183
239	0xbe44f8b3	-0.19235496
240	0xbe140829	-0.14456238
241	0x3ee06fcd	0.43835297
242	0x3e02205d	0.12707658
243	0xbd1477de	-0.036247127
244	0x3e55a5bf	0.20864008
245	0x3dfc7ce8	0.123285115
246	0x3e9d98d8	0.30780673
247	0xbdbce0a3	-0.092225336
248	0x3eddec08	0.4334414
249	0xbcf6e446	-0.030138146
250	0xbd5949f7	-0.053049054
251	0xbdf28b0f	-0.118429296
252	0x3e99c12d	0.30030194
253	0x3db6b1c1	0.089206226
254	0x3ee5e824	0.44903672
255	0xbe639154	-0.22223407

fc2.bias f4 [4]
0	0x3f223473	0.6336128
1	0x3f055e83	0.5209734
2	0x3eec959e	0.462079
3	0x3ef3bfb2	0.4760719
